{"Layers": [{
  "Name": "Reformatting CopyNode for Input Tensor 0 to /features.0/features.0.0/Conv",
  "LayerType": "Reformat",
  "Inputs": [
  {
    "Name": "input",
    "Location": "Device",
    "Dimensions": [1,3,224,224],
    "Format/Datatype": "Row major linear FP32"
  }],
  "Outputs": [
  {
    "Name": "Reformatted Input Tensor 0 to /features.0/features.0.0/Conv",
    "Location": "Device",
    "Dimensions": [1,3,224,224],
    "Format/Datatype": "Channel major FP32 format"
  }],
  "ParameterType": "Reformat",
  "Origin": "REFORMAT",
  "TacticValue": "0x00000000000003e8",
  "StreamId": 0,
  "Metadata": ""
},{
  "Name": "/features.0/features.0.0/Conv",
  "LayerType": "CaskConvolution",
  "Inputs": [
  {
    "Name": "Reformatted Input Tensor 0 to /features.0/features.0.0/Conv",
    "Location": "Device",
    "Dimensions": [1,3,224,224],
    "Format/Datatype": "Channel major FP32 format"
  }],
  "Outputs": [
  {
    "Name": "/features.0/features.0.0/Conv_output_0",
    "Location": "Device",
    "Dimensions": [1,40,112,112],
    "Format/Datatype": "Channel major FP32 format"
  }],
  "ParameterType": "Convolution",
  "Kernel": [3,3],
  "PaddingMode": "kEXPLICIT_ROUND_DOWN",
  "PrePadding": [1,1],
  "PostPadding": [1,1],
  "Stride": [2,2],
  "Dilation": [1,1],
  "OutMaps": 40,
  "Groups": 1,
  "Weights": {"Type": "Float", "Count": 1080},
  "Bias": {"Type": "Float", "Count": 40},
  "HasSparseWeights": 0,
  "HasDynamicFilter": 0,
  "HasDynamicBias": 0,
  "HasResidual": 0,
  "ConvXAsActInputIdx": -1,
  "BiasAsActInputIdx": -1,
  "ResAsActInputIdx": -1,
  "Activation": "NONE",
  "HasBias": 1,
  "HasReLU": 0,
  "TacticName": "sm80_xmma_fprop_implicit_gemm_indexed_wo_smem_f32f32_tf32f32_f32_nhwckrsc_nhwc_tilesize128x32x16_stage1_warpsize4x1x1_g1_tensor16x8x8_aligna4_alignc4",
  "TacticValue": "0xf231cca3335919a4",
  "StreamId": 0,
  "Metadata": "[ONNX Layer: /features.0/features.0.0/Conv]"
},{
  "Name": "PWN(PWN(PWN(PWN(PWN(/features.0/features.0.1/Constant_output_0 + (Unnamed Layer* 2) [Shuffle], /features.0/features.0.1/Div), PWN(/features.0/features.0.1/Erf)), /features.0/features.0.1/Constant_1_output_0 + (Unnamed Layer* 6) [Shuffle] + /features.0/features.0.1/Add), /features.0/features.0.1/Mul), /features.0/features.0.1/Constant_2_output_0 + (Unnamed Layer* 10) [Shuffle] + /features.0/features.0.1/Mul_1)",
  "LayerType": "PointWiseV2",
  "Inputs": [
  {
    "Name": "/features.0/features.0.0/Conv_output_0",
    "Location": "Device",
    "Dimensions": [1,40,112,112],
    "Format/Datatype": "Channel major FP32 format"
  }],
  "Outputs": [
  {
    "Name": "/features.0/features.0.1/Mul_1_output_0",
    "Location": "Device",
    "Dimensions": [1,40,112,112],
    "Format/Datatype": "Channel major FP32 format"
  }],
  "ParameterType": "PointWise",
  "ParameterSubType": "PointWiseExpression",
  "NbInputArgs": 1,
  "InputArgs": ["arg0"],
  "NbOutputVars": 1,
  "OutputVars": ["var4"],
  "NbParams": 0,
  "Params": [],
  "NbLiterals": 5,
  "Literals": ["1.414214e+00f", "0.000000e+00f", "1.000000e+00f", "0.000000e+00f", "5.000000e-01f"],
  "NbOperations": 5,
  "Operations": ["auto const var0 = pwgen::iDiv(arg0, literal0);", "auto const var1 = pwgen::iErf(var0);", "auto const var2 = pwgen::iPlus(var1, literal2);", "auto const var3 = pwgen::iMul(arg0, var2);", "auto const var4 = pwgen::iMul(var3, literal4);"],
  "TacticValue": "0x0000000000000003",
  "StreamId": 0,
  "Metadata": "[ONNX Layer: /features.0/features.0.1/Div]\u001e[ONNX Layer: /features.0/features.0.1/Erf]\u001e[ONNX Layer: /features.0/features.0.1/Add]\u001e[ONNX Layer: /features.0/features.0.1/Mul]\u001e[ONNX Layer: /features.0/features.0.1/Mul_1]"
},{
  "Name": "Reformatting CopyNode for Input Tensor 0 to /features.0/features.0.2/Conv",
  "LayerType": "NoOp",
  "Inputs": [
  {
    "Name": "/features.0/features.0.1/Mul_1_output_0",
    "Location": "Device",
    "Dimensions": [1,40,112,112],
    "Format/Datatype": "Channel major FP32 format"
  }],
  "Outputs": [
  {
    "Name": "Reformatted Input Tensor 0 to /features.0/features.0.2/Conv",
    "Location": "Device",
    "Dimensions": [1,40,112,112],
    "Format/Datatype": "Channel major FP32 format where channel % 4 == 0"
  }],
  "TacticValue": "0x0000000000000000",
  "StreamId": 0,
  "Metadata": ""
},{
  "Name": "/features.0/features.0.2/Conv",
  "LayerType": "CaskConvolution",
  "Inputs": [
  {
    "Name": "Reformatted Input Tensor 0 to /features.0/features.0.2/Conv",
    "Location": "Device",
    "Dimensions": [1,40,112,112],
    "Format/Datatype": "Channel major FP32 format where channel % 4 == 0"
  }],
  "Outputs": [
  {
    "Name": "/features.0/features.0.2/Conv_output_0",
    "Location": "Device",
    "Dimensions": [1,80,56,56],
    "Format/Datatype": "Channel major FP32 format where channel % 4 == 0"
  }],
  "ParameterType": "Convolution",
  "Kernel": [3,3],
  "PaddingMode": "kEXPLICIT_ROUND_DOWN",
  "PrePadding": [1,1],
  "PostPadding": [1,1],
  "Stride": [2,2],
  "Dilation": [1,1],
  "OutMaps": 80,
  "Groups": 1,
  "Weights": {"Type": "Float", "Count": 28800},
  "Bias": {"Type": "Float", "Count": 80},
  "HasSparseWeights": 0,
  "HasDynamicFilter": 0,
  "HasDynamicBias": 0,
  "HasResidual": 0,
  "ConvXAsActInputIdx": -1,
  "BiasAsActInputIdx": -1,
  "ResAsActInputIdx": -1,
  "Activation": "NONE",
  "HasBias": 1,
  "HasReLU": 0,
  "TacticName": "sm80_xmma_fprop_implicit_gemm_indexed_wo_smem_f32f32_tf32f32_f32_nhwckrsc_nhwc_tilesize128x16x64_stage1_warpsize4x1x1_g1_tensor16x8x8",
  "TacticValue": "0x10383a0781d24dde",
  "StreamId": 0,
  "Metadata": "[ONNX Layer: /features.0/features.0.2/Conv]"
},{
  "Name": "/features.1/token_mixer/token_mixer.0/Conv",
  "LayerType": "CaskConvolution",
  "Inputs": [
  {
    "Name": "/features.0/features.0.2/Conv_output_0",
    "Location": "Device",
    "Dimensions": [1,80,56,56],
    "Format/Datatype": "Channel major FP32 format where channel % 4 == 0"
  }],
  "Outputs": [
  {
    "Name": "/features.1/token_mixer/token_mixer.0/Conv_output_0",
    "Location": "Device",
    "Dimensions": [1,80,56,56],
    "Format/Datatype": "Channel major FP32 format where channel % 4 == 0"
  }],
  "ParameterType": "Convolution",
  "Kernel": [3,3],
  "PaddingMode": "kEXPLICIT_ROUND_DOWN",
  "PrePadding": [1,1],
  "PostPadding": [1,1],
  "Stride": [1,1],
  "Dilation": [1,1],
  "OutMaps": 80,
  "Groups": 80,
  "Weights": {"Type": "Float", "Count": 720},
  "Bias": {"Type": "Float", "Count": 80},
  "HasSparseWeights": 0,
  "HasDynamicFilter": 0,
  "HasDynamicBias": 0,
  "HasResidual": 0,
  "ConvXAsActInputIdx": -1,
  "BiasAsActInputIdx": -1,
  "ResAsActInputIdx": -1,
  "Activation": "NONE",
  "HasBias": 1,
  "HasReLU": 0,
  "TacticName": "sm50_xmma_convolution_trt_depthwiseFP32NHWC4_fp32nhwcx4_fp32nhwcx4_fp32kcrs",
  "TacticValue": "0x2cac8ad6921b6398",
  "StreamId": 0,
  "Metadata": "[ONNX Layer: /features.1/token_mixer/token_mixer.0/Conv]"
},{
  "Name": "/features.1/token_mixer/token_mixer.1/ReduceMean",
  "LayerType": "CaskPooling",
  "Inputs": [
  {
    "Name": "/features.1/token_mixer/token_mixer.0/Conv_output_0",
    "Location": "Device",
    "Dimensions": [1,80,56,56],
    "Format/Datatype": "Channel major FP32 format where channel % 4 == 0"
  }],
  "Outputs": [
  {
    "Name": "/features.1/token_mixer/token_mixer.1/ReduceMean_output_0",
    "Location": "Device",
    "Dimensions": [1,80,1,1],
    "Format/Datatype": "Channel major FP32 format where channel % 4 == 0"
  }],
  "ParameterType": "Pooling",
  "PoolingType": "AVERAGE",
  "WindowSize": [56,56],
  "PaddingMode": "kEXPLICIT_ROUND_DOWN",
  "PrePadding": [0,0],
  "PostPadding": [0,0],
  "Stride": [1,1],
  "BlendFactor": 0,
  "AverageCountExcludesPadding": 1,
  "TacticName": "sm50_xmma_pooling_fw_4d_FP32FP32NHWC_Average_FastDiv_CAlign4",
  "TacticValue": "0xfab3e2ee1c085a9a",
  "StreamId": 0,
  "Metadata": "[ONNX Layer: /features.1/token_mixer/token_mixer.1/ReduceMean]"
},{
  "Name": "Reformatting CopyNode for Input Tensor 0 to /features.1/token_mixer/token_mixer.1/fc1/Conv + /features.1/token_mixer/token_mixer.1/act/Relu",
  "LayerType": "NoOp",
  "Inputs": [
  {
    "Name": "/features.1/token_mixer/token_mixer.1/ReduceMean_output_0",
    "Location": "Device",
    "Dimensions": [1,80,1,1],
    "Format/Datatype": "Channel major FP32 format where channel % 4 == 0"
  }],
  "Outputs": [
  {
    "Name": "Reformatted Input Tensor 0 to /features.1/token_mixer/token_mixer.1/fc1/Conv + /features.1/token_mixer/token_mixer.1/act/Relu",
    "Location": "Device",
    "Dimensions": [1,80,1,1],
    "Format/Datatype": "Row major linear FP32"
  }],
  "TacticValue": "0x0000000000000000",
  "StreamId": 0,
  "Metadata": ""
},{
  "Name": "/features.1/token_mixer/token_mixer.1/fc1/Conv + /features.1/token_mixer/token_mixer.1/act/Relu",
  "LayerType": "CaskGemmConvolution",
  "Inputs": [
  {
    "Name": "Reformatted Input Tensor 0 to /features.1/token_mixer/token_mixer.1/fc1/Conv + /features.1/token_mixer/token_mixer.1/act/Relu",
    "Location": "Device",
    "Dimensions": [1,80,1,1],
    "Format/Datatype": "Row major linear FP32"
  }],
  "Outputs": [
  {
    "Name": "/features.1/token_mixer/token_mixer.1/act/Relu_output_0",
    "Location": "Device",
    "Dimensions": [1,24,1,1],
    "Format/Datatype": "Row major linear FP32"
  }],
  "ParameterType": "Convolution",
  "Kernel": [1,1],
  "PaddingMode": "kEXPLICIT_ROUND_DOWN",
  "PrePadding": [0,0],
  "PostPadding": [0,0],
  "Stride": [1,1],
  "Dilation": [1,1],
  "OutMaps": 24,
  "Groups": 1,
  "Weights": {"Type": "Float", "Count": 1920},
  "Bias": {"Type": "Float", "Count": 24},
  "HasSparseWeights": 0,
  "HasDynamicFilter": 0,
  "HasDynamicBias": 0,
  "HasResidual": 0,
  "ConvXAsActInputIdx": -1,
  "BiasAsActInputIdx": -1,
  "ResAsActInputIdx": -1,
  "Activation": "RELU",
  "TacticName": "sm50_xmma_cublas_gemvx_f32f32_f32_f32_nn_n_int32_unit_n_launch_param32x4x1_strided_unit_stride",
  "TacticValue": "0x00000000000202ea",
  "StreamId": 0,
  "Metadata": "[ONNX Layer: /features.1/token_mixer/token_mixer.1/fc1/Conv]\u001e[ONNX Layer: /features.1/token_mixer/token_mixer.1/act/Relu]"
},{
  "Name": "/features.1/token_mixer/token_mixer.1/fc2/Conv",
  "LayerType": "CaskGemmConvolution",
  "Inputs": [
  {
    "Name": "/features.1/token_mixer/token_mixer.1/act/Relu_output_0",
    "Location": "Device",
    "Dimensions": [1,24,1,1],
    "Format/Datatype": "Row major linear FP32"
  }],
  "Outputs": [
  {
    "Name": "/features.1/token_mixer/token_mixer.1/fc2/Conv_output_0",
    "Location": "Device",
    "Dimensions": [1,80,1,1],
    "Format/Datatype": "Row major linear FP32"
  }],
  "ParameterType": "Convolution",
  "Kernel": [1,1],
  "PaddingMode": "kEXPLICIT_ROUND_DOWN",
  "PrePadding": [0,0],
  "PostPadding": [0,0],
  "Stride": [1,1],
  "Dilation": [1,1],
  "OutMaps": 80,
  "Groups": 1,
  "Weights": {"Type": "Float", "Count": 1920},
  "Bias": {"Type": "Float", "Count": 80},
  "HasSparseWeights": 0,
  "HasDynamicFilter": 0,
  "HasDynamicBias": 0,
  "HasResidual": 0,
  "ConvXAsActInputIdx": -1,
  "BiasAsActInputIdx": -1,
  "ResAsActInputIdx": -1,
  "Activation": "NONE",
  "TacticName": "sm50_xmma_cublas_gemvx_f32f32_f32_f32_tn_n_int32_unit_n_launch_param64x8x1_strided_unit_stride",
  "TacticValue": "0x000000000002039b",
  "StreamId": 0,
  "Metadata": "[ONNX Layer: /features.1/token_mixer/token_mixer.1/fc2/Conv]"
},{
  "Name": "Reformatting CopyNode for Input Tensor 0 to PWN(PWN(/features.1/token_mixer/token_mixer.1/gate/Sigmoid), /features.1/token_mixer/token_mixer.1/Mul)",
  "LayerType": "NoOp",
  "Inputs": [
  {
    "Name": "/features.1/token_mixer/token_mixer.1/fc2/Conv_output_0",
    "Location": "Device",
    "Dimensions": [1,80,1,1],
    "Format/Datatype": "Row major linear FP32"
  }],
  "Outputs": [
  {
    "Name": "Reformatted Input Tensor 0 to PWN(PWN(/features.1/token_mixer/token_mixer.1/gate/Sigmoid), /features.1/token_mixer/token_mixer.1/Mul)",
    "Location": "Device",
    "Dimensions": [1,80,1,1],
    "Format/Datatype": "Channel major FP32 format"
  }],
  "TacticValue": "0x0000000000000000",
  "StreamId": 0,
  "Metadata": ""
},{
  "Name": "Reformatting CopyNode for Input Tensor 1 to PWN(PWN(/features.1/token_mixer/token_mixer.1/gate/Sigmoid), /features.1/token_mixer/token_mixer.1/Mul)",
  "LayerType": "NoOp",
  "Inputs": [
  {
    "Name": "/features.1/token_mixer/token_mixer.0/Conv_output_0",
    "Location": "Device",
    "Dimensions": [1,80,56,56],
    "Format/Datatype": "Channel major FP32 format where channel % 4 == 0"
  }],
  "Outputs": [
  {
    "Name": "Reformatted Input Tensor 1 to PWN(PWN(/features.1/token_mixer/token_mixer.1/gate/Sigmoid), /features.1/token_mixer/token_mixer.1/Mul)",
    "Location": "Device",
    "Dimensions": [1,80,56,56],
    "Format/Datatype": "Channel major FP32 format"
  }],
  "TacticValue": "0x0000000000000000",
  "StreamId": 0,
  "Metadata": ""
},{
  "Name": "PWN(PWN(/features.1/token_mixer/token_mixer.1/gate/Sigmoid), /features.1/token_mixer/token_mixer.1/Mul)",
  "LayerType": "PointWiseV2",
  "Inputs": [
  {
    "Name": "Reformatted Input Tensor 0 to PWN(PWN(/features.1/token_mixer/token_mixer.1/gate/Sigmoid), /features.1/token_mixer/token_mixer.1/Mul)",
    "Location": "Device",
    "Dimensions": [1,80,1,1],
    "Format/Datatype": "Channel major FP32 format"
  },
  {
    "Name": "Reformatted Input Tensor 1 to PWN(PWN(/features.1/token_mixer/token_mixer.1/gate/Sigmoid), /features.1/token_mixer/token_mixer.1/Mul)",
    "Location": "Device",
    "Dimensions": [1,80,56,56],
    "Format/Datatype": "Channel major FP32 format"
  }],
  "Outputs": [
  {
    "Name": "Reformatted Output Tensor 0 to PWN(PWN(/features.1/token_mixer/token_mixer.1/gate/Sigmoid), /features.1/token_mixer/token_mixer.1/Mul)",
    "Location": "Device",
    "Dimensions": [1,80,56,56],
    "Format/Datatype": "Channel major FP32 format"
  }],
  "ParameterType": "PointWise",
  "ParameterSubType": "PointWiseExpression",
  "NbInputArgs": 2,
  "InputArgs": ["arg0", "arg1"],
  "NbOutputVars": 1,
  "OutputVars": ["var4"],
  "NbParams": 0,
  "Params": [],
  "NbLiterals": 5,
  "Literals": ["0.000000e+00f", "1.000000e+00f", "0.000000e+00f", "0.000000e+00f", "1.000000e+00f"],
  "NbOperations": 5,
  "Operations": ["auto const var0 = pwgen::iNeg(arg0);", "auto const var1 = pwgen::iExp(var0);", "auto const var2 = pwgen::iPlus(literal4, var1);", "auto const var3 = pwgen::iRcp(var2);", "auto const var4 = pwgen::iMul(arg1, var3);"],
  "TacticValue": "0x0000000000000001",
  "StreamId": 0,
  "Metadata": "[ONNX Layer: /features.1/token_mixer/token_mixer.1/gate/Sigmoid]\u001e[ONNX Layer: /features.1/token_mixer/token_mixer.1/Mul]"
},{
  "Name": "Reformatting CopyNode for Output Tensor 0 to PWN(PWN(/features.1/token_mixer/token_mixer.1/gate/Sigmoid), /features.1/token_mixer/token_mixer.1/Mul)",
  "LayerType": "NoOp",
  "Inputs": [
  {
    "Name": "Reformatted Output Tensor 0 to PWN(PWN(/features.1/token_mixer/token_mixer.1/gate/Sigmoid), /features.1/token_mixer/token_mixer.1/Mul)",
    "Location": "Device",
    "Dimensions": [1,80,56,56],
    "Format/Datatype": "Channel major FP32 format"
  }],
  "Outputs": [
  {
    "Name": "/features.1/token_mixer/token_mixer.1/Mul_output_0",
    "Location": "Device",
    "Dimensions": [1,80,56,56],
    "Format/Datatype": "Channel major FP32 format where channel % 4 == 0"
  }],
  "TacticValue": "0x0000000000000000",
  "StreamId": 0,
  "Metadata": ""
},{
  "Name": "/features.1/channel_mixer/m/m.0/Conv",
  "LayerType": "CaskGemmConvolution",
  "Inputs": [
  {
    "Name": "/features.1/token_mixer/token_mixer.1/Mul_output_0",
    "Location": "Device",
    "Dimensions": [1,80,56,56],
    "Format/Datatype": "Channel major FP32 format where channel % 4 == 0"
  }],
  "Outputs": [
  {
    "Name": "/features.1/channel_mixer/m/m.0/Conv_output_0",
    "Location": "Device",
    "Dimensions": [1,160,56,56],
    "Format/Datatype": "Channel major FP32 format where channel % 4 == 0"
  }],
  "ParameterType": "Convolution",
  "Kernel": [1,1],
  "PaddingMode": "kEXPLICIT_ROUND_DOWN",
  "PrePadding": [0,0],
  "PostPadding": [0,0],
  "Stride": [1,1],
  "Dilation": [1,1],
  "OutMaps": 160,
  "Groups": 1,
  "Weights": {"Type": "Float", "Count": 12800},
  "Bias": {"Type": "Float", "Count": 160},
  "HasSparseWeights": 0,
  "HasDynamicFilter": 0,
  "HasDynamicBias": 0,
  "HasResidual": 0,
  "ConvXAsActInputIdx": -1,
  "BiasAsActInputIdx": -1,
  "ResAsActInputIdx": -1,
  "Activation": "NONE",
  "TacticName": "sm80_xmma_gemm_f32f32_tf32f32_f32_nn_n_tilesize128x64x16_stage6_warpsize2x2x1_tensor16x8x8",
  "TacticValue": "0x0000000000020541",
  "StreamId": 0,
  "Metadata": "[ONNX Layer: /features.1/channel_mixer/m/m.0/Conv]"
},{
  "Name": "PWN(PWN(PWN(PWN(PWN(/features.1/channel_mixer/m/m.1/Constant_output_0 + (Unnamed Layer* 22) [Shuffle], /features.1/channel_mixer/m/m.1/Div), PWN(/features.1/channel_mixer/m/m.1/Erf)), /features.1/channel_mixer/m/m.1/Constant_1_output_0 + (Unnamed Layer* 26) [Shuffle] + /features.1/channel_mixer/m/m.1/Add), /features.1/channel_mixer/m/m.1/Mul), /features.1/channel_mixer/m/m.1/Constant_2_output_0 + (Unnamed Layer* 30) [Shuffle] + /features.1/channel_mixer/m/m.1/Mul_1)",
  "LayerType": "PointWiseV2",
  "Inputs": [
  {
    "Name": "/features.1/channel_mixer/m/m.0/Conv_output_0",
    "Location": "Device",
    "Dimensions": [1,160,56,56],
    "Format/Datatype": "Channel major FP32 format where channel % 4 == 0"
  }],
  "Outputs": [
  {
    "Name": "/features.1/channel_mixer/m/m.1/Mul_1_output_0",
    "Location": "Device",
    "Dimensions": [1,160,56,56],
    "Format/Datatype": "Channel major FP32 format where channel % 4 == 0"
  }],
  "ParameterType": "PointWise",
  "ParameterSubType": "PointWiseExpression",
  "NbInputArgs": 1,
  "InputArgs": ["arg0"],
  "NbOutputVars": 1,
  "OutputVars": ["var4"],
  "NbParams": 0,
  "Params": [],
  "NbLiterals": 5,
  "Literals": ["1.414214e+00f", "0.000000e+00f", "1.000000e+00f", "0.000000e+00f", "5.000000e-01f"],
  "NbOperations": 5,
  "Operations": ["auto const var0 = pwgen::iDiv(arg0, literal0);", "auto const var1 = pwgen::iErf(var0);", "auto const var2 = pwgen::iPlus(var1, literal2);", "auto const var3 = pwgen::iMul(arg0, var2);", "auto const var4 = pwgen::iMul(var3, literal4);"],
  "TacticValue": "0x000000000000001c",
  "StreamId": 0,
  "Metadata": "[ONNX Layer: /features.1/channel_mixer/m/m.1/Div]\u001e[ONNX Layer: /features.1/channel_mixer/m/m.1/Erf]\u001e[ONNX Layer: /features.1/channel_mixer/m/m.1/Add]\u001e[ONNX Layer: /features.1/channel_mixer/m/m.1/Mul]\u001e[ONNX Layer: /features.1/channel_mixer/m/m.1/Mul_1]"
},{
  "Name": "/features.1/channel_mixer/m/m.2/Conv + /features.1/channel_mixer/Add",
  "LayerType": "CaskGemmConvolution",
  "Inputs": [
  {
    "Name": "/features.1/channel_mixer/m/m.1/Mul_1_output_0",
    "Location": "Device",
    "Dimensions": [1,160,56,56],
    "Format/Datatype": "Channel major FP32 format where channel % 4 == 0"
  },
  {
    "Name": "/features.1/token_mixer/token_mixer.1/Mul_output_0",
    "Location": "Device",
    "Dimensions": [1,80,56,56],
    "Format/Datatype": "Channel major FP32 format where channel % 4 == 0"
  }],
  "Outputs": [
  {
    "Name": "/features.1/channel_mixer/Add_output_0",
    "Location": "Device",
    "Dimensions": [1,80,56,56],
    "Format/Datatype": "Channel major FP32 format where channel % 4 == 0"
  }],
  "ParameterType": "Convolution",
  "Kernel": [1,1],
  "PaddingMode": "kEXPLICIT_ROUND_DOWN",
  "PrePadding": [0,0],
  "PostPadding": [0,0],
  "Stride": [1,1],
  "Dilation": [1,1],
  "OutMaps": 80,
  "Groups": 1,
  "Weights": {"Type": "Float", "Count": 12800},
  "Bias": {"Type": "Float", "Count": 80},
  "HasSparseWeights": 0,
  "HasDynamicFilter": 0,
  "HasDynamicBias": 0,
  "HasResidual": 1,
  "ConvXAsActInputIdx": -1,
  "BiasAsActInputIdx": -1,
  "ResAsActInputIdx": -1,
  "Activation": "NONE",
  "TacticName": "sm80_xmma_gemm_f32f32_tf32f32_f32_tn_n_tilesize32x32x64_stage3_warpsize2x1x2_tensor16x8x8",
  "TacticValue": "0x00000000000203cf",
  "StreamId": 0,
  "Metadata": "[ONNX Layer: /features.1/channel_mixer/m/m.2/Conv]\u001e[ONNX Layer: /features.1/channel_mixer/Add]"
},{
  "Name": "/features.2/token_mixer/token_mixer.0/Conv",
  "LayerType": "CaskConvolution",
  "Inputs": [
  {
    "Name": "/features.1/channel_mixer/Add_output_0",
    "Location": "Device",
    "Dimensions": [1,80,56,56],
    "Format/Datatype": "Channel major FP32 format where channel % 4 == 0"
  }],
  "Outputs": [
  {
    "Name": "/features.2/token_mixer/token_mixer.0/Conv_output_0",
    "Location": "Device",
    "Dimensions": [1,80,56,56],
    "Format/Datatype": "Channel major FP32 format where channel % 4 == 0"
  }],
  "ParameterType": "Convolution",
  "Kernel": [3,3],
  "PaddingMode": "kEXPLICIT_ROUND_DOWN",
  "PrePadding": [1,1],
  "PostPadding": [1,1],
  "Stride": [1,1],
  "Dilation": [1,1],
  "OutMaps": 80,
  "Groups": 80,
  "Weights": {"Type": "Float", "Count": 720},
  "Bias": {"Type": "Float", "Count": 80},
  "HasSparseWeights": 0,
  "HasDynamicFilter": 0,
  "HasDynamicBias": 0,
  "HasResidual": 0,
  "ConvXAsActInputIdx": -1,
  "BiasAsActInputIdx": -1,
  "ResAsActInputIdx": -1,
  "Activation": "NONE",
  "HasBias": 1,
  "HasReLU": 0,
  "TacticName": "sm50_xmma_convolution_trt_depthwiseFP32NHWC4_fp32nhwcx4_fp32nhwcx4_fp32kcrs",
  "TacticValue": "0x2cac8ad6921b6398",
  "StreamId": 0,
  "Metadata": "[ONNX Layer: /features.2/token_mixer/token_mixer.0/Conv]"
},{
  "Name": "/features.2/channel_mixer/m/m.0/Conv",
  "LayerType": "CaskGemmConvolution",
  "Inputs": [
  {
    "Name": "/features.2/token_mixer/token_mixer.0/Conv_output_0",
    "Location": "Device",
    "Dimensions": [1,80,56,56],
    "Format/Datatype": "Channel major FP32 format where channel % 4 == 0"
  }],
  "Outputs": [
  {
    "Name": "/features.2/channel_mixer/m/m.0/Conv_output_0",
    "Location": "Device",
    "Dimensions": [1,160,56,56],
    "Format/Datatype": "Channel major FP32 format where channel % 4 == 0"
  }],
  "ParameterType": "Convolution",
  "Kernel": [1,1],
  "PaddingMode": "kEXPLICIT_ROUND_DOWN",
  "PrePadding": [0,0],
  "PostPadding": [0,0],
  "Stride": [1,1],
  "Dilation": [1,1],
  "OutMaps": 160,
  "Groups": 1,
  "Weights": {"Type": "Float", "Count": 12800},
  "Bias": {"Type": "Float", "Count": 160},
  "HasSparseWeights": 0,
  "HasDynamicFilter": 0,
  "HasDynamicBias": 0,
  "HasResidual": 0,
  "ConvXAsActInputIdx": -1,
  "BiasAsActInputIdx": -1,
  "ResAsActInputIdx": -1,
  "Activation": "NONE",
  "TacticName": "sm80_xmma_gemm_f32f32_tf32f32_f32_nn_n_tilesize128x64x16_stage6_warpsize2x2x1_tensor16x8x8",
  "TacticValue": "0x0000000000020541",
  "StreamId": 0,
  "Metadata": "[ONNX Layer: /features.2/channel_mixer/m/m.0/Conv]"
},{
  "Name": "PWN(PWN(PWN(PWN(PWN(/features.2/channel_mixer/m/m.1/Constant_output_0 + (Unnamed Layer* 37) [Shuffle], /features.2/channel_mixer/m/m.1/Div), PWN(/features.2/channel_mixer/m/m.1/Erf)), /features.2/channel_mixer/m/m.1/Constant_1_output_0 + (Unnamed Layer* 41) [Shuffle] + /features.2/channel_mixer/m/m.1/Add), /features.2/channel_mixer/m/m.1/Mul), /features.2/channel_mixer/m/m.1/Constant_2_output_0 + (Unnamed Layer* 45) [Shuffle] + /features.2/channel_mixer/m/m.1/Mul_1)",
  "LayerType": "PointWiseV2",
  "Inputs": [
  {
    "Name": "/features.2/channel_mixer/m/m.0/Conv_output_0",
    "Location": "Device",
    "Dimensions": [1,160,56,56],
    "Format/Datatype": "Channel major FP32 format where channel % 4 == 0"
  }],
  "Outputs": [
  {
    "Name": "/features.2/channel_mixer/m/m.1/Mul_1_output_0",
    "Location": "Device",
    "Dimensions": [1,160,56,56],
    "Format/Datatype": "Channel major FP32 format where channel % 4 == 0"
  }],
  "ParameterType": "PointWise",
  "ParameterSubType": "PointWiseExpression",
  "NbInputArgs": 1,
  "InputArgs": ["arg0"],
  "NbOutputVars": 1,
  "OutputVars": ["var4"],
  "NbParams": 0,
  "Params": [],
  "NbLiterals": 5,
  "Literals": ["1.414214e+00f", "0.000000e+00f", "1.000000e+00f", "0.000000e+00f", "5.000000e-01f"],
  "NbOperations": 5,
  "Operations": ["auto const var0 = pwgen::iDiv(arg0, literal0);", "auto const var1 = pwgen::iErf(var0);", "auto const var2 = pwgen::iPlus(var1, literal2);", "auto const var3 = pwgen::iMul(arg0, var2);", "auto const var4 = pwgen::iMul(var3, literal4);"],
  "TacticValue": "0x000000000000001c",
  "StreamId": 0,
  "Metadata": "[ONNX Layer: /features.2/channel_mixer/m/m.1/Div]\u001e[ONNX Layer: /features.2/channel_mixer/m/m.1/Erf]\u001e[ONNX Layer: /features.2/channel_mixer/m/m.1/Add]\u001e[ONNX Layer: /features.2/channel_mixer/m/m.1/Mul]\u001e[ONNX Layer: /features.2/channel_mixer/m/m.1/Mul_1]"
},{
  "Name": "/features.2/channel_mixer/m/m.2/Conv + /features.2/channel_mixer/Add",
  "LayerType": "CaskGemmConvolution",
  "Inputs": [
  {
    "Name": "/features.2/channel_mixer/m/m.1/Mul_1_output_0",
    "Location": "Device",
    "Dimensions": [1,160,56,56],
    "Format/Datatype": "Channel major FP32 format where channel % 4 == 0"
  },
  {
    "Name": "/features.2/token_mixer/token_mixer.0/Conv_output_0",
    "Location": "Device",
    "Dimensions": [1,80,56,56],
    "Format/Datatype": "Channel major FP32 format where channel % 4 == 0"
  }],
  "Outputs": [
  {
    "Name": "/features.2/channel_mixer/Add_output_0",
    "Location": "Device",
    "Dimensions": [1,80,56,56],
    "Format/Datatype": "Channel major FP32 format where channel % 4 == 0"
  }],
  "ParameterType": "Convolution",
  "Kernel": [1,1],
  "PaddingMode": "kEXPLICIT_ROUND_DOWN",
  "PrePadding": [0,0],
  "PostPadding": [0,0],
  "Stride": [1,1],
  "Dilation": [1,1],
  "OutMaps": 80,
  "Groups": 1,
  "Weights": {"Type": "Float", "Count": 12800},
  "Bias": {"Type": "Float", "Count": 80},
  "HasSparseWeights": 0,
  "HasDynamicFilter": 0,
  "HasDynamicBias": 0,
  "HasResidual": 1,
  "ConvXAsActInputIdx": -1,
  "BiasAsActInputIdx": -1,
  "ResAsActInputIdx": -1,
  "Activation": "NONE",
  "TacticName": "sm80_xmma_gemm_f32f32_tf32f32_f32_tn_n_tilesize32x32x64_stage3_warpsize2x1x2_tensor16x8x8",
  "TacticValue": "0x00000000000203cf",
  "StreamId": 0,
  "Metadata": "[ONNX Layer: /features.2/channel_mixer/m/m.2/Conv]\u001e[ONNX Layer: /features.2/channel_mixer/Add]"
},{
  "Name": "/features.3/token_mixer/token_mixer.0/Conv",
  "LayerType": "CaskConvolution",
  "Inputs": [
  {
    "Name": "/features.2/channel_mixer/Add_output_0",
    "Location": "Device",
    "Dimensions": [1,80,56,56],
    "Format/Datatype": "Channel major FP32 format where channel % 4 == 0"
  }],
  "Outputs": [
  {
    "Name": "/features.3/token_mixer/token_mixer.0/Conv_output_0",
    "Location": "Device",
    "Dimensions": [1,80,56,56],
    "Format/Datatype": "Channel major FP32 format where channel % 4 == 0"
  }],
  "ParameterType": "Convolution",
  "Kernel": [3,3],
  "PaddingMode": "kEXPLICIT_ROUND_DOWN",
  "PrePadding": [1,1],
  "PostPadding": [1,1],
  "Stride": [1,1],
  "Dilation": [1,1],
  "OutMaps": 80,
  "Groups": 80,
  "Weights": {"Type": "Float", "Count": 720},
  "Bias": {"Type": "Float", "Count": 80},
  "HasSparseWeights": 0,
  "HasDynamicFilter": 0,
  "HasDynamicBias": 0,
  "HasResidual": 0,
  "ConvXAsActInputIdx": -1,
  "BiasAsActInputIdx": -1,
  "ResAsActInputIdx": -1,
  "Activation": "NONE",
  "HasBias": 1,
  "HasReLU": 0,
  "TacticName": "sm50_xmma_convolution_trt_depthwiseFP32NHWC4_fp32nhwcx4_fp32nhwcx4_fp32kcrs",
  "TacticValue": "0x2cac8ad6921b6398",
  "StreamId": 0,
  "Metadata": "[ONNX Layer: /features.3/token_mixer/token_mixer.0/Conv]"
},{
  "Name": "/features.3/token_mixer/token_mixer.1/ReduceMean",
  "LayerType": "CaskPooling",
  "Inputs": [
  {
    "Name": "/features.3/token_mixer/token_mixer.0/Conv_output_0",
    "Location": "Device",
    "Dimensions": [1,80,56,56],
    "Format/Datatype": "Channel major FP32 format where channel % 4 == 0"
  }],
  "Outputs": [
  {
    "Name": "/features.3/token_mixer/token_mixer.1/ReduceMean_output_0",
    "Location": "Device",
    "Dimensions": [1,80,1,1],
    "Format/Datatype": "Channel major FP32 format where channel % 4 == 0"
  }],
  "ParameterType": "Pooling",
  "PoolingType": "AVERAGE",
  "WindowSize": [56,56],
  "PaddingMode": "kEXPLICIT_ROUND_DOWN",
  "PrePadding": [0,0],
  "PostPadding": [0,0],
  "Stride": [1,1],
  "BlendFactor": 0,
  "AverageCountExcludesPadding": 1,
  "TacticName": "sm50_xmma_pooling_fw_4d_FP32FP32NHWC_Average_FastDiv_CAlign4",
  "TacticValue": "0xfab3e2ee1c085a9a",
  "StreamId": 0,
  "Metadata": "[ONNX Layer: /features.3/token_mixer/token_mixer.1/ReduceMean]"
},{
  "Name": "Reformatting CopyNode for Input Tensor 0 to /features.3/token_mixer/token_mixer.1/fc1/Conv + /features.3/token_mixer/token_mixer.1/act/Relu",
  "LayerType": "NoOp",
  "Inputs": [
  {
    "Name": "/features.3/token_mixer/token_mixer.1/ReduceMean_output_0",
    "Location": "Device",
    "Dimensions": [1,80,1,1],
    "Format/Datatype": "Channel major FP32 format where channel % 4 == 0"
  }],
  "Outputs": [
  {
    "Name": "Reformatted Input Tensor 0 to /features.3/token_mixer/token_mixer.1/fc1/Conv + /features.3/token_mixer/token_mixer.1/act/Relu",
    "Location": "Device",
    "Dimensions": [1,80,1,1],
    "Format/Datatype": "Row major linear FP32"
  }],
  "TacticValue": "0x0000000000000000",
  "StreamId": 0,
  "Metadata": ""
},{
  "Name": "/features.3/token_mixer/token_mixer.1/fc1/Conv + /features.3/token_mixer/token_mixer.1/act/Relu",
  "LayerType": "CaskGemmConvolution",
  "Inputs": [
  {
    "Name": "Reformatted Input Tensor 0 to /features.3/token_mixer/token_mixer.1/fc1/Conv + /features.3/token_mixer/token_mixer.1/act/Relu",
    "Location": "Device",
    "Dimensions": [1,80,1,1],
    "Format/Datatype": "Row major linear FP32"
  }],
  "Outputs": [
  {
    "Name": "/features.3/token_mixer/token_mixer.1/act/Relu_output_0",
    "Location": "Device",
    "Dimensions": [1,24,1,1],
    "Format/Datatype": "Row major linear FP32"
  }],
  "ParameterType": "Convolution",
  "Kernel": [1,1],
  "PaddingMode": "kEXPLICIT_ROUND_DOWN",
  "PrePadding": [0,0],
  "PostPadding": [0,0],
  "Stride": [1,1],
  "Dilation": [1,1],
  "OutMaps": 24,
  "Groups": 1,
  "Weights": {"Type": "Float", "Count": 1920},
  "Bias": {"Type": "Float", "Count": 24},
  "HasSparseWeights": 0,
  "HasDynamicFilter": 0,
  "HasDynamicBias": 0,
  "HasResidual": 0,
  "ConvXAsActInputIdx": -1,
  "BiasAsActInputIdx": -1,
  "ResAsActInputIdx": -1,
  "Activation": "RELU",
  "TacticName": "sm50_xmma_cublas_gemvx_f32f32_f32_f32_nn_n_int32_unit_n_launch_param32x4x1_strided_unit_stride",
  "TacticValue": "0x00000000000202ea",
  "StreamId": 0,
  "Metadata": "[ONNX Layer: /features.3/token_mixer/token_mixer.1/fc1/Conv]\u001e[ONNX Layer: /features.3/token_mixer/token_mixer.1/act/Relu]"
},{
  "Name": "/features.3/token_mixer/token_mixer.1/fc2/Conv",
  "LayerType": "CaskGemmConvolution",
  "Inputs": [
  {
    "Name": "/features.3/token_mixer/token_mixer.1/act/Relu_output_0",
    "Location": "Device",
    "Dimensions": [1,24,1,1],
    "Format/Datatype": "Row major linear FP32"
  }],
  "Outputs": [
  {
    "Name": "/features.3/token_mixer/token_mixer.1/fc2/Conv_output_0",
    "Location": "Device",
    "Dimensions": [1,80,1,1],
    "Format/Datatype": "Row major linear FP32"
  }],
  "ParameterType": "Convolution",
  "Kernel": [1,1],
  "PaddingMode": "kEXPLICIT_ROUND_DOWN",
  "PrePadding": [0,0],
  "PostPadding": [0,0],
  "Stride": [1,1],
  "Dilation": [1,1],
  "OutMaps": 80,
  "Groups": 1,
  "Weights": {"Type": "Float", "Count": 1920},
  "Bias": {"Type": "Float", "Count": 80},
  "HasSparseWeights": 0,
  "HasDynamicFilter": 0,
  "HasDynamicBias": 0,
  "HasResidual": 0,
  "ConvXAsActInputIdx": -1,
  "BiasAsActInputIdx": -1,
  "ResAsActInputIdx": -1,
  "Activation": "NONE",
  "TacticName": "sm50_xmma_cublas_gemvx_f32f32_f32_f32_tn_n_int32_unit_n_launch_param64x8x1_strided_unit_stride",
  "TacticValue": "0x000000000002039b",
  "StreamId": 0,
  "Metadata": "[ONNX Layer: /features.3/token_mixer/token_mixer.1/fc2/Conv]"
},{
  "Name": "Reformatting CopyNode for Input Tensor 0 to PWN(PWN(/features.3/token_mixer/token_mixer.1/gate/Sigmoid), /features.3/token_mixer/token_mixer.1/Mul)",
  "LayerType": "NoOp",
  "Inputs": [
  {
    "Name": "/features.3/token_mixer/token_mixer.1/fc2/Conv_output_0",
    "Location": "Device",
    "Dimensions": [1,80,1,1],
    "Format/Datatype": "Row major linear FP32"
  }],
  "Outputs": [
  {
    "Name": "Reformatted Input Tensor 0 to PWN(PWN(/features.3/token_mixer/token_mixer.1/gate/Sigmoid), /features.3/token_mixer/token_mixer.1/Mul)",
    "Location": "Device",
    "Dimensions": [1,80,1,1],
    "Format/Datatype": "Channel major FP32 format"
  }],
  "TacticValue": "0x0000000000000000",
  "StreamId": 0,
  "Metadata": ""
},{
  "Name": "Reformatting CopyNode for Input Tensor 1 to PWN(PWN(/features.3/token_mixer/token_mixer.1/gate/Sigmoid), /features.3/token_mixer/token_mixer.1/Mul)",
  "LayerType": "NoOp",
  "Inputs": [
  {
    "Name": "/features.3/token_mixer/token_mixer.0/Conv_output_0",
    "Location": "Device",
    "Dimensions": [1,80,56,56],
    "Format/Datatype": "Channel major FP32 format where channel % 4 == 0"
  }],
  "Outputs": [
  {
    "Name": "Reformatted Input Tensor 1 to PWN(PWN(/features.3/token_mixer/token_mixer.1/gate/Sigmoid), /features.3/token_mixer/token_mixer.1/Mul)",
    "Location": "Device",
    "Dimensions": [1,80,56,56],
    "Format/Datatype": "Channel major FP32 format"
  }],
  "TacticValue": "0x0000000000000000",
  "StreamId": 0,
  "Metadata": ""
},{
  "Name": "PWN(PWN(/features.3/token_mixer/token_mixer.1/gate/Sigmoid), /features.3/token_mixer/token_mixer.1/Mul)",
  "LayerType": "PointWiseV2",
  "Inputs": [
  {
    "Name": "Reformatted Input Tensor 0 to PWN(PWN(/features.3/token_mixer/token_mixer.1/gate/Sigmoid), /features.3/token_mixer/token_mixer.1/Mul)",
    "Location": "Device",
    "Dimensions": [1,80,1,1],
    "Format/Datatype": "Channel major FP32 format"
  },
  {
    "Name": "Reformatted Input Tensor 1 to PWN(PWN(/features.3/token_mixer/token_mixer.1/gate/Sigmoid), /features.3/token_mixer/token_mixer.1/Mul)",
    "Location": "Device",
    "Dimensions": [1,80,56,56],
    "Format/Datatype": "Channel major FP32 format"
  }],
  "Outputs": [
  {
    "Name": "Reformatted Output Tensor 0 to PWN(PWN(/features.3/token_mixer/token_mixer.1/gate/Sigmoid), /features.3/token_mixer/token_mixer.1/Mul)",
    "Location": "Device",
    "Dimensions": [1,80,56,56],
    "Format/Datatype": "Channel major FP32 format"
  }],
  "ParameterType": "PointWise",
  "ParameterSubType": "PointWiseExpression",
  "NbInputArgs": 2,
  "InputArgs": ["arg0", "arg1"],
  "NbOutputVars": 1,
  "OutputVars": ["var4"],
  "NbParams": 0,
  "Params": [],
  "NbLiterals": 5,
  "Literals": ["0.000000e+00f", "1.000000e+00f", "0.000000e+00f", "0.000000e+00f", "1.000000e+00f"],
  "NbOperations": 5,
  "Operations": ["auto const var0 = pwgen::iNeg(arg0);", "auto const var1 = pwgen::iExp(var0);", "auto const var2 = pwgen::iPlus(literal4, var1);", "auto const var3 = pwgen::iRcp(var2);", "auto const var4 = pwgen::iMul(arg1, var3);"],
  "TacticValue": "0x0000000000000001",
  "StreamId": 0,
  "Metadata": "[ONNX Layer: /features.3/token_mixer/token_mixer.1/gate/Sigmoid]\u001e[ONNX Layer: /features.3/token_mixer/token_mixer.1/Mul]"
},{
  "Name": "Reformatting CopyNode for Output Tensor 0 to PWN(PWN(/features.3/token_mixer/token_mixer.1/gate/Sigmoid), /features.3/token_mixer/token_mixer.1/Mul)",
  "LayerType": "NoOp",
  "Inputs": [
  {
    "Name": "Reformatted Output Tensor 0 to PWN(PWN(/features.3/token_mixer/token_mixer.1/gate/Sigmoid), /features.3/token_mixer/token_mixer.1/Mul)",
    "Location": "Device",
    "Dimensions": [1,80,56,56],
    "Format/Datatype": "Channel major FP32 format"
  }],
  "Outputs": [
  {
    "Name": "/features.3/token_mixer/token_mixer.1/Mul_output_0",
    "Location": "Device",
    "Dimensions": [1,80,56,56],
    "Format/Datatype": "Channel major FP32 format where channel % 4 == 0"
  }],
  "TacticValue": "0x0000000000000000",
  "StreamId": 0,
  "Metadata": ""
},{
  "Name": "/features.3/channel_mixer/m/m.0/Conv",
  "LayerType": "CaskGemmConvolution",
  "Inputs": [
  {
    "Name": "/features.3/token_mixer/token_mixer.1/Mul_output_0",
    "Location": "Device",
    "Dimensions": [1,80,56,56],
    "Format/Datatype": "Channel major FP32 format where channel % 4 == 0"
  }],
  "Outputs": [
  {
    "Name": "/features.3/channel_mixer/m/m.0/Conv_output_0",
    "Location": "Device",
    "Dimensions": [1,160,56,56],
    "Format/Datatype": "Channel major FP32 format where channel % 4 == 0"
  }],
  "ParameterType": "Convolution",
  "Kernel": [1,1],
  "PaddingMode": "kEXPLICIT_ROUND_DOWN",
  "PrePadding": [0,0],
  "PostPadding": [0,0],
  "Stride": [1,1],
  "Dilation": [1,1],
  "OutMaps": 160,
  "Groups": 1,
  "Weights": {"Type": "Float", "Count": 12800},
  "Bias": {"Type": "Float", "Count": 160},
  "HasSparseWeights": 0,
  "HasDynamicFilter": 0,
  "HasDynamicBias": 0,
  "HasResidual": 0,
  "ConvXAsActInputIdx": -1,
  "BiasAsActInputIdx": -1,
  "ResAsActInputIdx": -1,
  "Activation": "NONE",
  "TacticName": "sm80_xmma_gemm_f32f32_tf32f32_f32_nn_n_tilesize128x64x16_stage6_warpsize2x2x1_tensor16x8x8",
  "TacticValue": "0x0000000000020541",
  "StreamId": 0,
  "Metadata": "[ONNX Layer: /features.3/channel_mixer/m/m.0/Conv]"
},{
  "Name": "PWN(PWN(PWN(PWN(PWN(/features.3/channel_mixer/m/m.1/Constant_output_0 + (Unnamed Layer* 58) [Shuffle], /features.3/channel_mixer/m/m.1/Div), PWN(/features.3/channel_mixer/m/m.1/Erf)), /features.3/channel_mixer/m/m.1/Constant_1_output_0 + (Unnamed Layer* 62) [Shuffle] + /features.3/channel_mixer/m/m.1/Add), /features.3/channel_mixer/m/m.1/Mul), /features.3/channel_mixer/m/m.1/Constant_2_output_0 + (Unnamed Layer* 66) [Shuffle] + /features.3/channel_mixer/m/m.1/Mul_1)",
  "LayerType": "PointWiseV2",
  "Inputs": [
  {
    "Name": "/features.3/channel_mixer/m/m.0/Conv_output_0",
    "Location": "Device",
    "Dimensions": [1,160,56,56],
    "Format/Datatype": "Channel major FP32 format where channel % 4 == 0"
  }],
  "Outputs": [
  {
    "Name": "/features.3/channel_mixer/m/m.1/Mul_1_output_0",
    "Location": "Device",
    "Dimensions": [1,160,56,56],
    "Format/Datatype": "Channel major FP32 format where channel % 4 == 0"
  }],
  "ParameterType": "PointWise",
  "ParameterSubType": "PointWiseExpression",
  "NbInputArgs": 1,
  "InputArgs": ["arg0"],
  "NbOutputVars": 1,
  "OutputVars": ["var4"],
  "NbParams": 0,
  "Params": [],
  "NbLiterals": 5,
  "Literals": ["1.414214e+00f", "0.000000e+00f", "1.000000e+00f", "0.000000e+00f", "5.000000e-01f"],
  "NbOperations": 5,
  "Operations": ["auto const var0 = pwgen::iDiv(arg0, literal0);", "auto const var1 = pwgen::iErf(var0);", "auto const var2 = pwgen::iPlus(var1, literal2);", "auto const var3 = pwgen::iMul(arg0, var2);", "auto const var4 = pwgen::iMul(var3, literal4);"],
  "TacticValue": "0x000000000000001c",
  "StreamId": 0,
  "Metadata": "[ONNX Layer: /features.3/channel_mixer/m/m.1/Div]\u001e[ONNX Layer: /features.3/channel_mixer/m/m.1/Erf]\u001e[ONNX Layer: /features.3/channel_mixer/m/m.1/Add]\u001e[ONNX Layer: /features.3/channel_mixer/m/m.1/Mul]\u001e[ONNX Layer: /features.3/channel_mixer/m/m.1/Mul_1]"
},{
  "Name": "/features.3/channel_mixer/m/m.2/Conv + /features.3/channel_mixer/Add",
  "LayerType": "CaskGemmConvolution",
  "Inputs": [
  {
    "Name": "/features.3/channel_mixer/m/m.1/Mul_1_output_0",
    "Location": "Device",
    "Dimensions": [1,160,56,56],
    "Format/Datatype": "Channel major FP32 format where channel % 4 == 0"
  },
  {
    "Name": "/features.3/token_mixer/token_mixer.1/Mul_output_0",
    "Location": "Device",
    "Dimensions": [1,80,56,56],
    "Format/Datatype": "Channel major FP32 format where channel % 4 == 0"
  }],
  "Outputs": [
  {
    "Name": "/features.3/channel_mixer/Add_output_0",
    "Location": "Device",
    "Dimensions": [1,80,56,56],
    "Format/Datatype": "Channel major FP32 format where channel % 4 == 0"
  }],
  "ParameterType": "Convolution",
  "Kernel": [1,1],
  "PaddingMode": "kEXPLICIT_ROUND_DOWN",
  "PrePadding": [0,0],
  "PostPadding": [0,0],
  "Stride": [1,1],
  "Dilation": [1,1],
  "OutMaps": 80,
  "Groups": 1,
  "Weights": {"Type": "Float", "Count": 12800},
  "Bias": {"Type": "Float", "Count": 80},
  "HasSparseWeights": 0,
  "HasDynamicFilter": 0,
  "HasDynamicBias": 0,
  "HasResidual": 1,
  "ConvXAsActInputIdx": -1,
  "BiasAsActInputIdx": -1,
  "ResAsActInputIdx": -1,
  "Activation": "NONE",
  "TacticName": "sm80_xmma_gemm_f32f32_tf32f32_f32_tn_n_tilesize32x32x64_stage3_warpsize2x1x2_tensor16x8x8",
  "TacticValue": "0x00000000000203cf",
  "StreamId": 0,
  "Metadata": "[ONNX Layer: /features.3/channel_mixer/m/m.2/Conv]\u001e[ONNX Layer: /features.3/channel_mixer/Add]"
},{
  "Name": "/features.4/token_mixer/token_mixer.0/Conv",
  "LayerType": "CaskConvolution",
  "Inputs": [
  {
    "Name": "/features.3/channel_mixer/Add_output_0",
    "Location": "Device",
    "Dimensions": [1,80,56,56],
    "Format/Datatype": "Channel major FP32 format where channel % 4 == 0"
  }],
  "Outputs": [
  {
    "Name": "/features.4/token_mixer/token_mixer.0/Conv_output_0",
    "Location": "Device",
    "Dimensions": [1,80,56,56],
    "Format/Datatype": "Channel major FP32 format where channel % 4 == 0"
  }],
  "ParameterType": "Convolution",
  "Kernel": [3,3],
  "PaddingMode": "kEXPLICIT_ROUND_DOWN",
  "PrePadding": [1,1],
  "PostPadding": [1,1],
  "Stride": [1,1],
  "Dilation": [1,1],
  "OutMaps": 80,
  "Groups": 80,
  "Weights": {"Type": "Float", "Count": 720},
  "Bias": {"Type": "Float", "Count": 80},
  "HasSparseWeights": 0,
  "HasDynamicFilter": 0,
  "HasDynamicBias": 0,
  "HasResidual": 0,
  "ConvXAsActInputIdx": -1,
  "BiasAsActInputIdx": -1,
  "ResAsActInputIdx": -1,
  "Activation": "NONE",
  "HasBias": 1,
  "HasReLU": 0,
  "TacticName": "sm50_xmma_convolution_trt_depthwiseFP32NHWC4_fp32nhwcx4_fp32nhwcx4_fp32kcrs",
  "TacticValue": "0x2cac8ad6921b6398",
  "StreamId": 0,
  "Metadata": "[ONNX Layer: /features.4/token_mixer/token_mixer.0/Conv]"
},{
  "Name": "/features.4/channel_mixer/m/m.0/Conv",
  "LayerType": "CaskGemmConvolution",
  "Inputs": [
  {
    "Name": "/features.4/token_mixer/token_mixer.0/Conv_output_0",
    "Location": "Device",
    "Dimensions": [1,80,56,56],
    "Format/Datatype": "Channel major FP32 format where channel % 4 == 0"
  }],
  "Outputs": [
  {
    "Name": "/features.4/channel_mixer/m/m.0/Conv_output_0",
    "Location": "Device",
    "Dimensions": [1,160,56,56],
    "Format/Datatype": "Channel major FP32 format where channel % 4 == 0"
  }],
  "ParameterType": "Convolution",
  "Kernel": [1,1],
  "PaddingMode": "kEXPLICIT_ROUND_DOWN",
  "PrePadding": [0,0],
  "PostPadding": [0,0],
  "Stride": [1,1],
  "Dilation": [1,1],
  "OutMaps": 160,
  "Groups": 1,
  "Weights": {"Type": "Float", "Count": 12800},
  "Bias": {"Type": "Float", "Count": 160},
  "HasSparseWeights": 0,
  "HasDynamicFilter": 0,
  "HasDynamicBias": 0,
  "HasResidual": 0,
  "ConvXAsActInputIdx": -1,
  "BiasAsActInputIdx": -1,
  "ResAsActInputIdx": -1,
  "Activation": "NONE",
  "TacticName": "sm80_xmma_gemm_f32f32_tf32f32_f32_nn_n_tilesize128x64x16_stage6_warpsize2x2x1_tensor16x8x8",
  "TacticValue": "0x0000000000020541",
  "StreamId": 0,
  "Metadata": "[ONNX Layer: /features.4/channel_mixer/m/m.0/Conv]"
},{
  "Name": "PWN(PWN(PWN(PWN(PWN(/features.4/channel_mixer/m/m.1/Constant_output_0 + (Unnamed Layer* 73) [Shuffle], /features.4/channel_mixer/m/m.1/Div), PWN(/features.4/channel_mixer/m/m.1/Erf)), /features.4/channel_mixer/m/m.1/Constant_1_output_0 + (Unnamed Layer* 77) [Shuffle] + /features.4/channel_mixer/m/m.1/Add), /features.4/channel_mixer/m/m.1/Mul), /features.4/channel_mixer/m/m.1/Constant_2_output_0 + (Unnamed Layer* 81) [Shuffle] + /features.4/channel_mixer/m/m.1/Mul_1)",
  "LayerType": "PointWiseV2",
  "Inputs": [
  {
    "Name": "/features.4/channel_mixer/m/m.0/Conv_output_0",
    "Location": "Device",
    "Dimensions": [1,160,56,56],
    "Format/Datatype": "Channel major FP32 format where channel % 4 == 0"
  }],
  "Outputs": [
  {
    "Name": "/features.4/channel_mixer/m/m.1/Mul_1_output_0",
    "Location": "Device",
    "Dimensions": [1,160,56,56],
    "Format/Datatype": "Channel major FP32 format where channel % 4 == 0"
  }],
  "ParameterType": "PointWise",
  "ParameterSubType": "PointWiseExpression",
  "NbInputArgs": 1,
  "InputArgs": ["arg0"],
  "NbOutputVars": 1,
  "OutputVars": ["var4"],
  "NbParams": 0,
  "Params": [],
  "NbLiterals": 5,
  "Literals": ["1.414214e+00f", "0.000000e+00f", "1.000000e+00f", "0.000000e+00f", "5.000000e-01f"],
  "NbOperations": 5,
  "Operations": ["auto const var0 = pwgen::iDiv(arg0, literal0);", "auto const var1 = pwgen::iErf(var0);", "auto const var2 = pwgen::iPlus(var1, literal2);", "auto const var3 = pwgen::iMul(arg0, var2);", "auto const var4 = pwgen::iMul(var3, literal4);"],
  "TacticValue": "0x000000000000001c",
  "StreamId": 0,
  "Metadata": "[ONNX Layer: /features.4/channel_mixer/m/m.1/Div]\u001e[ONNX Layer: /features.4/channel_mixer/m/m.1/Erf]\u001e[ONNX Layer: /features.4/channel_mixer/m/m.1/Add]\u001e[ONNX Layer: /features.4/channel_mixer/m/m.1/Mul]\u001e[ONNX Layer: /features.4/channel_mixer/m/m.1/Mul_1]"
},{
  "Name": "/features.4/channel_mixer/m/m.2/Conv + /features.4/channel_mixer/Add",
  "LayerType": "CaskGemmConvolution",
  "Inputs": [
  {
    "Name": "/features.4/channel_mixer/m/m.1/Mul_1_output_0",
    "Location": "Device",
    "Dimensions": [1,160,56,56],
    "Format/Datatype": "Channel major FP32 format where channel % 4 == 0"
  },
  {
    "Name": "/features.4/token_mixer/token_mixer.0/Conv_output_0",
    "Location": "Device",
    "Dimensions": [1,80,56,56],
    "Format/Datatype": "Channel major FP32 format where channel % 4 == 0"
  }],
  "Outputs": [
  {
    "Name": "/features.4/channel_mixer/Add_output_0",
    "Location": "Device",
    "Dimensions": [1,80,56,56],
    "Format/Datatype": "Channel major FP32 format where channel % 4 == 0"
  }],
  "ParameterType": "Convolution",
  "Kernel": [1,1],
  "PaddingMode": "kEXPLICIT_ROUND_DOWN",
  "PrePadding": [0,0],
  "PostPadding": [0,0],
  "Stride": [1,1],
  "Dilation": [1,1],
  "OutMaps": 80,
  "Groups": 1,
  "Weights": {"Type": "Float", "Count": 12800},
  "Bias": {"Type": "Float", "Count": 80},
  "HasSparseWeights": 0,
  "HasDynamicFilter": 0,
  "HasDynamicBias": 0,
  "HasResidual": 1,
  "ConvXAsActInputIdx": -1,
  "BiasAsActInputIdx": -1,
  "ResAsActInputIdx": -1,
  "Activation": "NONE",
  "TacticName": "sm80_xmma_gemm_f32f32_tf32f32_f32_tn_n_tilesize32x32x64_stage3_warpsize2x1x2_tensor16x8x8",
  "TacticValue": "0x00000000000203cf",
  "StreamId": 0,
  "Metadata": "[ONNX Layer: /features.4/channel_mixer/m/m.2/Conv]\u001e[ONNX Layer: /features.4/channel_mixer/Add]"
},{
  "Name": "/features.5/token_mixer/token_mixer.0/Conv",
  "LayerType": "CaskConvolution",
  "Inputs": [
  {
    "Name": "/features.4/channel_mixer/Add_output_0",
    "Location": "Device",
    "Dimensions": [1,80,56,56],
    "Format/Datatype": "Channel major FP32 format where channel % 4 == 0"
  }],
  "Outputs": [
  {
    "Name": "/features.5/token_mixer/token_mixer.0/Conv_output_0",
    "Location": "Device",
    "Dimensions": [1,80,56,56],
    "Format/Datatype": "Channel major FP32 format where channel % 4 == 0"
  }],
  "ParameterType": "Convolution",
  "Kernel": [3,3],
  "PaddingMode": "kEXPLICIT_ROUND_DOWN",
  "PrePadding": [1,1],
  "PostPadding": [1,1],
  "Stride": [1,1],
  "Dilation": [1,1],
  "OutMaps": 80,
  "Groups": 80,
  "Weights": {"Type": "Float", "Count": 720},
  "Bias": {"Type": "Float", "Count": 80},
  "HasSparseWeights": 0,
  "HasDynamicFilter": 0,
  "HasDynamicBias": 0,
  "HasResidual": 0,
  "ConvXAsActInputIdx": -1,
  "BiasAsActInputIdx": -1,
  "ResAsActInputIdx": -1,
  "Activation": "NONE",
  "HasBias": 1,
  "HasReLU": 0,
  "TacticName": "sm50_xmma_convolution_trt_depthwiseFP32NHWC4_fp32nhwcx4_fp32nhwcx4_fp32kcrs",
  "TacticValue": "0x2cac8ad6921b6398",
  "StreamId": 0,
  "Metadata": "[ONNX Layer: /features.5/token_mixer/token_mixer.0/Conv]"
},{
  "Name": "/features.5/token_mixer/token_mixer.1/ReduceMean",
  "LayerType": "CaskPooling",
  "Inputs": [
  {
    "Name": "/features.5/token_mixer/token_mixer.0/Conv_output_0",
    "Location": "Device",
    "Dimensions": [1,80,56,56],
    "Format/Datatype": "Channel major FP32 format where channel % 4 == 0"
  }],
  "Outputs": [
  {
    "Name": "/features.5/token_mixer/token_mixer.1/ReduceMean_output_0",
    "Location": "Device",
    "Dimensions": [1,80,1,1],
    "Format/Datatype": "Channel major FP32 format where channel % 4 == 0"
  }],
  "ParameterType": "Pooling",
  "PoolingType": "AVERAGE",
  "WindowSize": [56,56],
  "PaddingMode": "kEXPLICIT_ROUND_DOWN",
  "PrePadding": [0,0],
  "PostPadding": [0,0],
  "Stride": [1,1],
  "BlendFactor": 0,
  "AverageCountExcludesPadding": 1,
  "TacticName": "sm50_xmma_pooling_fw_4d_FP32FP32NHWC_Average_FastDiv_CAlign4",
  "TacticValue": "0xfab3e2ee1c085a9a",
  "StreamId": 0,
  "Metadata": "[ONNX Layer: /features.5/token_mixer/token_mixer.1/ReduceMean]"
},{
  "Name": "Reformatting CopyNode for Input Tensor 0 to /features.5/token_mixer/token_mixer.1/fc1/Conv + /features.5/token_mixer/token_mixer.1/act/Relu",
  "LayerType": "NoOp",
  "Inputs": [
  {
    "Name": "/features.5/token_mixer/token_mixer.1/ReduceMean_output_0",
    "Location": "Device",
    "Dimensions": [1,80,1,1],
    "Format/Datatype": "Channel major FP32 format where channel % 4 == 0"
  }],
  "Outputs": [
  {
    "Name": "Reformatted Input Tensor 0 to /features.5/token_mixer/token_mixer.1/fc1/Conv + /features.5/token_mixer/token_mixer.1/act/Relu",
    "Location": "Device",
    "Dimensions": [1,80,1,1],
    "Format/Datatype": "Row major linear FP32"
  }],
  "TacticValue": "0x0000000000000000",
  "StreamId": 0,
  "Metadata": ""
},{
  "Name": "/features.5/token_mixer/token_mixer.1/fc1/Conv + /features.5/token_mixer/token_mixer.1/act/Relu",
  "LayerType": "CaskGemmConvolution",
  "Inputs": [
  {
    "Name": "Reformatted Input Tensor 0 to /features.5/token_mixer/token_mixer.1/fc1/Conv + /features.5/token_mixer/token_mixer.1/act/Relu",
    "Location": "Device",
    "Dimensions": [1,80,1,1],
    "Format/Datatype": "Row major linear FP32"
  }],
  "Outputs": [
  {
    "Name": "/features.5/token_mixer/token_mixer.1/act/Relu_output_0",
    "Location": "Device",
    "Dimensions": [1,24,1,1],
    "Format/Datatype": "Row major linear FP32"
  }],
  "ParameterType": "Convolution",
  "Kernel": [1,1],
  "PaddingMode": "kEXPLICIT_ROUND_DOWN",
  "PrePadding": [0,0],
  "PostPadding": [0,0],
  "Stride": [1,1],
  "Dilation": [1,1],
  "OutMaps": 24,
  "Groups": 1,
  "Weights": {"Type": "Float", "Count": 1920},
  "Bias": {"Type": "Float", "Count": 24},
  "HasSparseWeights": 0,
  "HasDynamicFilter": 0,
  "HasDynamicBias": 0,
  "HasResidual": 0,
  "ConvXAsActInputIdx": -1,
  "BiasAsActInputIdx": -1,
  "ResAsActInputIdx": -1,
  "Activation": "RELU",
  "TacticName": "sm50_xmma_cublas_gemvx_f32f32_f32_f32_nn_n_int32_unit_n_launch_param32x4x1_strided_unit_stride",
  "TacticValue": "0x00000000000202ea",
  "StreamId": 0,
  "Metadata": "[ONNX Layer: /features.5/token_mixer/token_mixer.1/fc1/Conv]\u001e[ONNX Layer: /features.5/token_mixer/token_mixer.1/act/Relu]"
},{
  "Name": "/features.5/token_mixer/token_mixer.1/fc2/Conv",
  "LayerType": "CaskGemmConvolution",
  "Inputs": [
  {
    "Name": "/features.5/token_mixer/token_mixer.1/act/Relu_output_0",
    "Location": "Device",
    "Dimensions": [1,24,1,1],
    "Format/Datatype": "Row major linear FP32"
  }],
  "Outputs": [
  {
    "Name": "/features.5/token_mixer/token_mixer.1/fc2/Conv_output_0",
    "Location": "Device",
    "Dimensions": [1,80,1,1],
    "Format/Datatype": "Row major linear FP32"
  }],
  "ParameterType": "Convolution",
  "Kernel": [1,1],
  "PaddingMode": "kEXPLICIT_ROUND_DOWN",
  "PrePadding": [0,0],
  "PostPadding": [0,0],
  "Stride": [1,1],
  "Dilation": [1,1],
  "OutMaps": 80,
  "Groups": 1,
  "Weights": {"Type": "Float", "Count": 1920},
  "Bias": {"Type": "Float", "Count": 80},
  "HasSparseWeights": 0,
  "HasDynamicFilter": 0,
  "HasDynamicBias": 0,
  "HasResidual": 0,
  "ConvXAsActInputIdx": -1,
  "BiasAsActInputIdx": -1,
  "ResAsActInputIdx": -1,
  "Activation": "NONE",
  "TacticName": "sm50_xmma_cublas_gemvx_f32f32_f32_f32_tn_n_int32_unit_n_launch_param64x8x1_strided_unit_stride",
  "TacticValue": "0x000000000002039b",
  "StreamId": 0,
  "Metadata": "[ONNX Layer: /features.5/token_mixer/token_mixer.1/fc2/Conv]"
},{
  "Name": "Reformatting CopyNode for Input Tensor 0 to PWN(PWN(/features.5/token_mixer/token_mixer.1/gate/Sigmoid), /features.5/token_mixer/token_mixer.1/Mul)",
  "LayerType": "NoOp",
  "Inputs": [
  {
    "Name": "/features.5/token_mixer/token_mixer.1/fc2/Conv_output_0",
    "Location": "Device",
    "Dimensions": [1,80,1,1],
    "Format/Datatype": "Row major linear FP32"
  }],
  "Outputs": [
  {
    "Name": "Reformatted Input Tensor 0 to PWN(PWN(/features.5/token_mixer/token_mixer.1/gate/Sigmoid), /features.5/token_mixer/token_mixer.1/Mul)",
    "Location": "Device",
    "Dimensions": [1,80,1,1],
    "Format/Datatype": "Channel major FP32 format"
  }],
  "TacticValue": "0x0000000000000000",
  "StreamId": 0,
  "Metadata": ""
},{
  "Name": "Reformatting CopyNode for Input Tensor 1 to PWN(PWN(/features.5/token_mixer/token_mixer.1/gate/Sigmoid), /features.5/token_mixer/token_mixer.1/Mul)",
  "LayerType": "NoOp",
  "Inputs": [
  {
    "Name": "/features.5/token_mixer/token_mixer.0/Conv_output_0",
    "Location": "Device",
    "Dimensions": [1,80,56,56],
    "Format/Datatype": "Channel major FP32 format where channel % 4 == 0"
  }],
  "Outputs": [
  {
    "Name": "Reformatted Input Tensor 1 to PWN(PWN(/features.5/token_mixer/token_mixer.1/gate/Sigmoid), /features.5/token_mixer/token_mixer.1/Mul)",
    "Location": "Device",
    "Dimensions": [1,80,56,56],
    "Format/Datatype": "Channel major FP32 format"
  }],
  "TacticValue": "0x0000000000000000",
  "StreamId": 0,
  "Metadata": ""
},{
  "Name": "PWN(PWN(/features.5/token_mixer/token_mixer.1/gate/Sigmoid), /features.5/token_mixer/token_mixer.1/Mul)",
  "LayerType": "PointWiseV2",
  "Inputs": [
  {
    "Name": "Reformatted Input Tensor 0 to PWN(PWN(/features.5/token_mixer/token_mixer.1/gate/Sigmoid), /features.5/token_mixer/token_mixer.1/Mul)",
    "Location": "Device",
    "Dimensions": [1,80,1,1],
    "Format/Datatype": "Channel major FP32 format"
  },
  {
    "Name": "Reformatted Input Tensor 1 to PWN(PWN(/features.5/token_mixer/token_mixer.1/gate/Sigmoid), /features.5/token_mixer/token_mixer.1/Mul)",
    "Location": "Device",
    "Dimensions": [1,80,56,56],
    "Format/Datatype": "Channel major FP32 format"
  }],
  "Outputs": [
  {
    "Name": "Reformatted Output Tensor 0 to PWN(PWN(/features.5/token_mixer/token_mixer.1/gate/Sigmoid), /features.5/token_mixer/token_mixer.1/Mul)",
    "Location": "Device",
    "Dimensions": [1,80,56,56],
    "Format/Datatype": "Channel major FP32 format"
  }],
  "ParameterType": "PointWise",
  "ParameterSubType": "PointWiseExpression",
  "NbInputArgs": 2,
  "InputArgs": ["arg0", "arg1"],
  "NbOutputVars": 1,
  "OutputVars": ["var4"],
  "NbParams": 0,
  "Params": [],
  "NbLiterals": 5,
  "Literals": ["0.000000e+00f", "1.000000e+00f", "0.000000e+00f", "0.000000e+00f", "1.000000e+00f"],
  "NbOperations": 5,
  "Operations": ["auto const var0 = pwgen::iNeg(arg0);", "auto const var1 = pwgen::iExp(var0);", "auto const var2 = pwgen::iPlus(literal4, var1);", "auto const var3 = pwgen::iRcp(var2);", "auto const var4 = pwgen::iMul(arg1, var3);"],
  "TacticValue": "0x0000000000000001",
  "StreamId": 0,
  "Metadata": "[ONNX Layer: /features.5/token_mixer/token_mixer.1/gate/Sigmoid]\u001e[ONNX Layer: /features.5/token_mixer/token_mixer.1/Mul]"
},{
  "Name": "Reformatting CopyNode for Output Tensor 0 to PWN(PWN(/features.5/token_mixer/token_mixer.1/gate/Sigmoid), /features.5/token_mixer/token_mixer.1/Mul)",
  "LayerType": "NoOp",
  "Inputs": [
  {
    "Name": "Reformatted Output Tensor 0 to PWN(PWN(/features.5/token_mixer/token_mixer.1/gate/Sigmoid), /features.5/token_mixer/token_mixer.1/Mul)",
    "Location": "Device",
    "Dimensions": [1,80,56,56],
    "Format/Datatype": "Channel major FP32 format"
  }],
  "Outputs": [
  {
    "Name": "/features.5/token_mixer/token_mixer.1/Mul_output_0",
    "Location": "Device",
    "Dimensions": [1,80,56,56],
    "Format/Datatype": "Channel major FP32 format where channel % 4 == 0"
  }],
  "TacticValue": "0x0000000000000000",
  "StreamId": 0,
  "Metadata": ""
},{
  "Name": "/features.5/channel_mixer/m/m.0/Conv",
  "LayerType": "CaskGemmConvolution",
  "Inputs": [
  {
    "Name": "/features.5/token_mixer/token_mixer.1/Mul_output_0",
    "Location": "Device",
    "Dimensions": [1,80,56,56],
    "Format/Datatype": "Channel major FP32 format where channel % 4 == 0"
  }],
  "Outputs": [
  {
    "Name": "/features.5/channel_mixer/m/m.0/Conv_output_0",
    "Location": "Device",
    "Dimensions": [1,160,56,56],
    "Format/Datatype": "Channel major FP32 format where channel % 4 == 0"
  }],
  "ParameterType": "Convolution",
  "Kernel": [1,1],
  "PaddingMode": "kEXPLICIT_ROUND_DOWN",
  "PrePadding": [0,0],
  "PostPadding": [0,0],
  "Stride": [1,1],
  "Dilation": [1,1],
  "OutMaps": 160,
  "Groups": 1,
  "Weights": {"Type": "Float", "Count": 12800},
  "Bias": {"Type": "Float", "Count": 160},
  "HasSparseWeights": 0,
  "HasDynamicFilter": 0,
  "HasDynamicBias": 0,
  "HasResidual": 0,
  "ConvXAsActInputIdx": -1,
  "BiasAsActInputIdx": -1,
  "ResAsActInputIdx": -1,
  "Activation": "NONE",
  "TacticName": "sm80_xmma_gemm_f32f32_tf32f32_f32_nn_n_tilesize128x64x16_stage6_warpsize2x2x1_tensor16x8x8",
  "TacticValue": "0x0000000000020541",
  "StreamId": 0,
  "Metadata": "[ONNX Layer: /features.5/channel_mixer/m/m.0/Conv]"
},{
  "Name": "PWN(PWN(PWN(PWN(PWN(/features.5/channel_mixer/m/m.1/Constant_output_0 + (Unnamed Layer* 94) [Shuffle], /features.5/channel_mixer/m/m.1/Div), PWN(/features.5/channel_mixer/m/m.1/Erf)), /features.5/channel_mixer/m/m.1/Constant_1_output_0 + (Unnamed Layer* 98) [Shuffle] + /features.5/channel_mixer/m/m.1/Add), /features.5/channel_mixer/m/m.1/Mul), /features.5/channel_mixer/m/m.1/Constant_2_output_0 + (Unnamed Layer* 102) [Shuffle] + /features.5/channel_mixer/m/m.1/Mul_1)",
  "LayerType": "PointWiseV2",
  "Inputs": [
  {
    "Name": "/features.5/channel_mixer/m/m.0/Conv_output_0",
    "Location": "Device",
    "Dimensions": [1,160,56,56],
    "Format/Datatype": "Channel major FP32 format where channel % 4 == 0"
  }],
  "Outputs": [
  {
    "Name": "/features.5/channel_mixer/m/m.1/Mul_1_output_0",
    "Location": "Device",
    "Dimensions": [1,160,56,56],
    "Format/Datatype": "Channel major FP32 format where channel % 4 == 0"
  }],
  "ParameterType": "PointWise",
  "ParameterSubType": "PointWiseExpression",
  "NbInputArgs": 1,
  "InputArgs": ["arg0"],
  "NbOutputVars": 1,
  "OutputVars": ["var4"],
  "NbParams": 0,
  "Params": [],
  "NbLiterals": 5,
  "Literals": ["1.414214e+00f", "0.000000e+00f", "1.000000e+00f", "0.000000e+00f", "5.000000e-01f"],
  "NbOperations": 5,
  "Operations": ["auto const var0 = pwgen::iDiv(arg0, literal0);", "auto const var1 = pwgen::iErf(var0);", "auto const var2 = pwgen::iPlus(var1, literal2);", "auto const var3 = pwgen::iMul(arg0, var2);", "auto const var4 = pwgen::iMul(var3, literal4);"],
  "TacticValue": "0x000000000000001c",
  "StreamId": 0,
  "Metadata": "[ONNX Layer: /features.5/channel_mixer/m/m.1/Div]\u001e[ONNX Layer: /features.5/channel_mixer/m/m.1/Erf]\u001e[ONNX Layer: /features.5/channel_mixer/m/m.1/Add]\u001e[ONNX Layer: /features.5/channel_mixer/m/m.1/Mul]\u001e[ONNX Layer: /features.5/channel_mixer/m/m.1/Mul_1]"
},{
  "Name": "/features.5/channel_mixer/m/m.2/Conv + /features.5/channel_mixer/Add",
  "LayerType": "CaskGemmConvolution",
  "Inputs": [
  {
    "Name": "/features.5/channel_mixer/m/m.1/Mul_1_output_0",
    "Location": "Device",
    "Dimensions": [1,160,56,56],
    "Format/Datatype": "Channel major FP32 format where channel % 4 == 0"
  },
  {
    "Name": "/features.5/token_mixer/token_mixer.1/Mul_output_0",
    "Location": "Device",
    "Dimensions": [1,80,56,56],
    "Format/Datatype": "Channel major FP32 format where channel % 4 == 0"
  }],
  "Outputs": [
  {
    "Name": "/features.5/channel_mixer/Add_output_0",
    "Location": "Device",
    "Dimensions": [1,80,56,56],
    "Format/Datatype": "Channel major FP32 format where channel % 4 == 0"
  }],
  "ParameterType": "Convolution",
  "Kernel": [1,1],
  "PaddingMode": "kEXPLICIT_ROUND_DOWN",
  "PrePadding": [0,0],
  "PostPadding": [0,0],
  "Stride": [1,1],
  "Dilation": [1,1],
  "OutMaps": 80,
  "Groups": 1,
  "Weights": {"Type": "Float", "Count": 12800},
  "Bias": {"Type": "Float", "Count": 80},
  "HasSparseWeights": 0,
  "HasDynamicFilter": 0,
  "HasDynamicBias": 0,
  "HasResidual": 1,
  "ConvXAsActInputIdx": -1,
  "BiasAsActInputIdx": -1,
  "ResAsActInputIdx": -1,
  "Activation": "NONE",
  "TacticName": "sm80_xmma_gemm_f32f32_tf32f32_f32_tn_n_tilesize32x32x64_stage3_warpsize2x1x2_tensor16x8x8",
  "TacticValue": "0x00000000000203cf",
  "StreamId": 0,
  "Metadata": "[ONNX Layer: /features.5/channel_mixer/m/m.2/Conv]\u001e[ONNX Layer: /features.5/channel_mixer/Add]"
},{
  "Name": "/features.6/token_mixer/token_mixer.0/Conv",
  "LayerType": "CaskConvolution",
  "Inputs": [
  {
    "Name": "/features.5/channel_mixer/Add_output_0",
    "Location": "Device",
    "Dimensions": [1,80,56,56],
    "Format/Datatype": "Channel major FP32 format where channel % 4 == 0"
  }],
  "Outputs": [
  {
    "Name": "/features.6/token_mixer/token_mixer.0/Conv_output_0",
    "Location": "Device",
    "Dimensions": [1,80,56,56],
    "Format/Datatype": "Channel major FP32 format where channel % 4 == 0"
  }],
  "ParameterType": "Convolution",
  "Kernel": [3,3],
  "PaddingMode": "kEXPLICIT_ROUND_DOWN",
  "PrePadding": [1,1],
  "PostPadding": [1,1],
  "Stride": [1,1],
  "Dilation": [1,1],
  "OutMaps": 80,
  "Groups": 80,
  "Weights": {"Type": "Float", "Count": 720},
  "Bias": {"Type": "Float", "Count": 80},
  "HasSparseWeights": 0,
  "HasDynamicFilter": 0,
  "HasDynamicBias": 0,
  "HasResidual": 0,
  "ConvXAsActInputIdx": -1,
  "BiasAsActInputIdx": -1,
  "ResAsActInputIdx": -1,
  "Activation": "NONE",
  "HasBias": 1,
  "HasReLU": 0,
  "TacticName": "sm50_xmma_convolution_trt_depthwiseFP32NHWC4_fp32nhwcx4_fp32nhwcx4_fp32kcrs",
  "TacticValue": "0x2cac8ad6921b6398",
  "StreamId": 0,
  "Metadata": "[ONNX Layer: /features.6/token_mixer/token_mixer.0/Conv]"
},{
  "Name": "/features.6/channel_mixer/m/m.0/Conv",
  "LayerType": "CaskGemmConvolution",
  "Inputs": [
  {
    "Name": "/features.6/token_mixer/token_mixer.0/Conv_output_0",
    "Location": "Device",
    "Dimensions": [1,80,56,56],
    "Format/Datatype": "Channel major FP32 format where channel % 4 == 0"
  }],
  "Outputs": [
  {
    "Name": "/features.6/channel_mixer/m/m.0/Conv_output_0",
    "Location": "Device",
    "Dimensions": [1,160,56,56],
    "Format/Datatype": "Channel major FP32 format where channel % 4 == 0"
  }],
  "ParameterType": "Convolution",
  "Kernel": [1,1],
  "PaddingMode": "kEXPLICIT_ROUND_DOWN",
  "PrePadding": [0,0],
  "PostPadding": [0,0],
  "Stride": [1,1],
  "Dilation": [1,1],
  "OutMaps": 160,
  "Groups": 1,
  "Weights": {"Type": "Float", "Count": 12800},
  "Bias": {"Type": "Float", "Count": 160},
  "HasSparseWeights": 0,
  "HasDynamicFilter": 0,
  "HasDynamicBias": 0,
  "HasResidual": 0,
  "ConvXAsActInputIdx": -1,
  "BiasAsActInputIdx": -1,
  "ResAsActInputIdx": -1,
  "Activation": "NONE",
  "TacticName": "sm80_xmma_gemm_f32f32_tf32f32_f32_nn_n_tilesize128x64x16_stage6_warpsize2x2x1_tensor16x8x8",
  "TacticValue": "0x0000000000020541",
  "StreamId": 0,
  "Metadata": "[ONNX Layer: /features.6/channel_mixer/m/m.0/Conv]"
},{
  "Name": "PWN(PWN(PWN(PWN(PWN(/features.6/channel_mixer/m/m.1/Constant_output_0 + (Unnamed Layer* 109) [Shuffle], /features.6/channel_mixer/m/m.1/Div), PWN(/features.6/channel_mixer/m/m.1/Erf)), /features.6/channel_mixer/m/m.1/Constant_1_output_0 + (Unnamed Layer* 113) [Shuffle] + /features.6/channel_mixer/m/m.1/Add), /features.6/channel_mixer/m/m.1/Mul), /features.6/channel_mixer/m/m.1/Constant_2_output_0 + (Unnamed Layer* 117) [Shuffle] + /features.6/channel_mixer/m/m.1/Mul_1)",
  "LayerType": "PointWiseV2",
  "Inputs": [
  {
    "Name": "/features.6/channel_mixer/m/m.0/Conv_output_0",
    "Location": "Device",
    "Dimensions": [1,160,56,56],
    "Format/Datatype": "Channel major FP32 format where channel % 4 == 0"
  }],
  "Outputs": [
  {
    "Name": "/features.6/channel_mixer/m/m.1/Mul_1_output_0",
    "Location": "Device",
    "Dimensions": [1,160,56,56],
    "Format/Datatype": "Channel major FP32 format where channel % 4 == 0"
  }],
  "ParameterType": "PointWise",
  "ParameterSubType": "PointWiseExpression",
  "NbInputArgs": 1,
  "InputArgs": ["arg0"],
  "NbOutputVars": 1,
  "OutputVars": ["var4"],
  "NbParams": 0,
  "Params": [],
  "NbLiterals": 5,
  "Literals": ["1.414214e+00f", "0.000000e+00f", "1.000000e+00f", "0.000000e+00f", "5.000000e-01f"],
  "NbOperations": 5,
  "Operations": ["auto const var0 = pwgen::iDiv(arg0, literal0);", "auto const var1 = pwgen::iErf(var0);", "auto const var2 = pwgen::iPlus(var1, literal2);", "auto const var3 = pwgen::iMul(arg0, var2);", "auto const var4 = pwgen::iMul(var3, literal4);"],
  "TacticValue": "0x000000000000001c",
  "StreamId": 0,
  "Metadata": "[ONNX Layer: /features.6/channel_mixer/m/m.1/Div]\u001e[ONNX Layer: /features.6/channel_mixer/m/m.1/Erf]\u001e[ONNX Layer: /features.6/channel_mixer/m/m.1/Add]\u001e[ONNX Layer: /features.6/channel_mixer/m/m.1/Mul]\u001e[ONNX Layer: /features.6/channel_mixer/m/m.1/Mul_1]"
},{
  "Name": "/features.6/channel_mixer/m/m.2/Conv + /features.6/channel_mixer/Add",
  "LayerType": "CaskGemmConvolution",
  "Inputs": [
  {
    "Name": "/features.6/channel_mixer/m/m.1/Mul_1_output_0",
    "Location": "Device",
    "Dimensions": [1,160,56,56],
    "Format/Datatype": "Channel major FP32 format where channel % 4 == 0"
  },
  {
    "Name": "/features.6/token_mixer/token_mixer.0/Conv_output_0",
    "Location": "Device",
    "Dimensions": [1,80,56,56],
    "Format/Datatype": "Channel major FP32 format where channel % 4 == 0"
  }],
  "Outputs": [
  {
    "Name": "/features.6/channel_mixer/Add_output_0",
    "Location": "Device",
    "Dimensions": [1,80,56,56],
    "Format/Datatype": "Channel major FP32 format where channel % 4 == 0"
  }],
  "ParameterType": "Convolution",
  "Kernel": [1,1],
  "PaddingMode": "kEXPLICIT_ROUND_DOWN",
  "PrePadding": [0,0],
  "PostPadding": [0,0],
  "Stride": [1,1],
  "Dilation": [1,1],
  "OutMaps": 80,
  "Groups": 1,
  "Weights": {"Type": "Float", "Count": 12800},
  "Bias": {"Type": "Float", "Count": 80},
  "HasSparseWeights": 0,
  "HasDynamicFilter": 0,
  "HasDynamicBias": 0,
  "HasResidual": 1,
  "ConvXAsActInputIdx": -1,
  "BiasAsActInputIdx": -1,
  "ResAsActInputIdx": -1,
  "Activation": "NONE",
  "TacticName": "sm80_xmma_gemm_f32f32_tf32f32_f32_tn_n_tilesize32x32x64_stage3_warpsize2x1x2_tensor16x8x8",
  "TacticValue": "0x00000000000203cf",
  "StreamId": 0,
  "Metadata": "[ONNX Layer: /features.6/channel_mixer/m/m.2/Conv]\u001e[ONNX Layer: /features.6/channel_mixer/Add]"
},{
  "Name": "/features.7/token_mixer/token_mixer.0/Conv",
  "LayerType": "CaskConvolution",
  "Inputs": [
  {
    "Name": "/features.6/channel_mixer/Add_output_0",
    "Location": "Device",
    "Dimensions": [1,80,56,56],
    "Format/Datatype": "Channel major FP32 format where channel % 4 == 0"
  }],
  "Outputs": [
  {
    "Name": "/features.7/token_mixer/token_mixer.0/Conv_output_0",
    "Location": "Device",
    "Dimensions": [1,80,56,56],
    "Format/Datatype": "Channel major FP32 format where channel % 4 == 0"
  }],
  "ParameterType": "Convolution",
  "Kernel": [3,3],
  "PaddingMode": "kEXPLICIT_ROUND_DOWN",
  "PrePadding": [1,1],
  "PostPadding": [1,1],
  "Stride": [1,1],
  "Dilation": [1,1],
  "OutMaps": 80,
  "Groups": 80,
  "Weights": {"Type": "Float", "Count": 720},
  "Bias": {"Type": "Float", "Count": 80},
  "HasSparseWeights": 0,
  "HasDynamicFilter": 0,
  "HasDynamicBias": 0,
  "HasResidual": 0,
  "ConvXAsActInputIdx": -1,
  "BiasAsActInputIdx": -1,
  "ResAsActInputIdx": -1,
  "Activation": "NONE",
  "HasBias": 1,
  "HasReLU": 0,
  "TacticName": "sm50_xmma_convolution_trt_depthwiseFP32NHWC4_fp32nhwcx4_fp32nhwcx4_fp32kcrs",
  "TacticValue": "0x2cac8ad6921b6398",
  "StreamId": 0,
  "Metadata": "[ONNX Layer: /features.7/token_mixer/token_mixer.0/Conv]"
},{
  "Name": "/features.7/channel_mixer/m/m.0/Conv",
  "LayerType": "CaskGemmConvolution",
  "Inputs": [
  {
    "Name": "/features.7/token_mixer/token_mixer.0/Conv_output_0",
    "Location": "Device",
    "Dimensions": [1,80,56,56],
    "Format/Datatype": "Channel major FP32 format where channel % 4 == 0"
  }],
  "Outputs": [
  {
    "Name": "/features.7/channel_mixer/m/m.0/Conv_output_0",
    "Location": "Device",
    "Dimensions": [1,160,56,56],
    "Format/Datatype": "Channel major FP32 format where channel % 4 == 0"
  }],
  "ParameterType": "Convolution",
  "Kernel": [1,1],
  "PaddingMode": "kEXPLICIT_ROUND_DOWN",
  "PrePadding": [0,0],
  "PostPadding": [0,0],
  "Stride": [1,1],
  "Dilation": [1,1],
  "OutMaps": 160,
  "Groups": 1,
  "Weights": {"Type": "Float", "Count": 12800},
  "Bias": {"Type": "Float", "Count": 160},
  "HasSparseWeights": 0,
  "HasDynamicFilter": 0,
  "HasDynamicBias": 0,
  "HasResidual": 0,
  "ConvXAsActInputIdx": -1,
  "BiasAsActInputIdx": -1,
  "ResAsActInputIdx": -1,
  "Activation": "NONE",
  "TacticName": "sm80_xmma_gemm_f32f32_tf32f32_f32_nn_n_tilesize128x64x16_stage6_warpsize2x2x1_tensor16x8x8",
  "TacticValue": "0x0000000000020541",
  "StreamId": 0,
  "Metadata": "[ONNX Layer: /features.7/channel_mixer/m/m.0/Conv]"
},{
  "Name": "PWN(PWN(PWN(PWN(PWN(/features.7/channel_mixer/m/m.1/Constant_output_0 + (Unnamed Layer* 124) [Shuffle], /features.7/channel_mixer/m/m.1/Div), PWN(/features.7/channel_mixer/m/m.1/Erf)), /features.7/channel_mixer/m/m.1/Constant_1_output_0 + (Unnamed Layer* 128) [Shuffle] + /features.7/channel_mixer/m/m.1/Add), /features.7/channel_mixer/m/m.1/Mul), /features.7/channel_mixer/m/m.1/Constant_2_output_0 + (Unnamed Layer* 132) [Shuffle] + /features.7/channel_mixer/m/m.1/Mul_1)",
  "LayerType": "PointWiseV2",
  "Inputs": [
  {
    "Name": "/features.7/channel_mixer/m/m.0/Conv_output_0",
    "Location": "Device",
    "Dimensions": [1,160,56,56],
    "Format/Datatype": "Channel major FP32 format where channel % 4 == 0"
  }],
  "Outputs": [
  {
    "Name": "/features.7/channel_mixer/m/m.1/Mul_1_output_0",
    "Location": "Device",
    "Dimensions": [1,160,56,56],
    "Format/Datatype": "Channel major FP32 format where channel % 4 == 0"
  }],
  "ParameterType": "PointWise",
  "ParameterSubType": "PointWiseExpression",
  "NbInputArgs": 1,
  "InputArgs": ["arg0"],
  "NbOutputVars": 1,
  "OutputVars": ["var4"],
  "NbParams": 0,
  "Params": [],
  "NbLiterals": 5,
  "Literals": ["1.414214e+00f", "0.000000e+00f", "1.000000e+00f", "0.000000e+00f", "5.000000e-01f"],
  "NbOperations": 5,
  "Operations": ["auto const var0 = pwgen::iDiv(arg0, literal0);", "auto const var1 = pwgen::iErf(var0);", "auto const var2 = pwgen::iPlus(var1, literal2);", "auto const var3 = pwgen::iMul(arg0, var2);", "auto const var4 = pwgen::iMul(var3, literal4);"],
  "TacticValue": "0x000000000000001c",
  "StreamId": 0,
  "Metadata": "[ONNX Layer: /features.7/channel_mixer/m/m.1/Div]\u001e[ONNX Layer: /features.7/channel_mixer/m/m.1/Erf]\u001e[ONNX Layer: /features.7/channel_mixer/m/m.1/Add]\u001e[ONNX Layer: /features.7/channel_mixer/m/m.1/Mul]\u001e[ONNX Layer: /features.7/channel_mixer/m/m.1/Mul_1]"
},{
  "Name": "/features.7/channel_mixer/m/m.2/Conv + /features.7/channel_mixer/Add",
  "LayerType": "CaskGemmConvolution",
  "Inputs": [
  {
    "Name": "/features.7/channel_mixer/m/m.1/Mul_1_output_0",
    "Location": "Device",
    "Dimensions": [1,160,56,56],
    "Format/Datatype": "Channel major FP32 format where channel % 4 == 0"
  },
  {
    "Name": "/features.7/token_mixer/token_mixer.0/Conv_output_0",
    "Location": "Device",
    "Dimensions": [1,80,56,56],
    "Format/Datatype": "Channel major FP32 format where channel % 4 == 0"
  }],
  "Outputs": [
  {
    "Name": "/features.7/channel_mixer/Add_output_0",
    "Location": "Device",
    "Dimensions": [1,80,56,56],
    "Format/Datatype": "Channel major FP32 format where channel % 4 == 0"
  }],
  "ParameterType": "Convolution",
  "Kernel": [1,1],
  "PaddingMode": "kEXPLICIT_ROUND_DOWN",
  "PrePadding": [0,0],
  "PostPadding": [0,0],
  "Stride": [1,1],
  "Dilation": [1,1],
  "OutMaps": 80,
  "Groups": 1,
  "Weights": {"Type": "Float", "Count": 12800},
  "Bias": {"Type": "Float", "Count": 80},
  "HasSparseWeights": 0,
  "HasDynamicFilter": 0,
  "HasDynamicBias": 0,
  "HasResidual": 1,
  "ConvXAsActInputIdx": -1,
  "BiasAsActInputIdx": -1,
  "ResAsActInputIdx": -1,
  "Activation": "NONE",
  "TacticName": "sm80_xmma_gemm_f32f32_tf32f32_f32_tn_n_tilesize32x32x64_stage3_warpsize2x1x2_tensor16x8x8",
  "TacticValue": "0x00000000000203cf",
  "StreamId": 0,
  "Metadata": "[ONNX Layer: /features.7/channel_mixer/m/m.2/Conv]\u001e[ONNX Layer: /features.7/channel_mixer/Add]"
},{
  "Name": "/features.8/token_mixer/token_mixer.0/Conv",
  "LayerType": "CaskConvolution",
  "Inputs": [
  {
    "Name": "/features.7/channel_mixer/Add_output_0",
    "Location": "Device",
    "Dimensions": [1,80,56,56],
    "Format/Datatype": "Channel major FP32 format where channel % 4 == 0"
  }],
  "Outputs": [
  {
    "Name": "/features.8/token_mixer/token_mixer.0/Conv_output_0",
    "Location": "Device",
    "Dimensions": [1,80,28,28],
    "Format/Datatype": "Channel major FP32 format where channel % 4 == 0"
  }],
  "ParameterType": "Convolution",
  "Kernel": [3,3],
  "PaddingMode": "kEXPLICIT_ROUND_DOWN",
  "PrePadding": [1,1],
  "PostPadding": [1,1],
  "Stride": [2,2],
  "Dilation": [1,1],
  "OutMaps": 80,
  "Groups": 80,
  "Weights": {"Type": "Float", "Count": 720},
  "Bias": {"Type": "Float", "Count": 80},
  "HasSparseWeights": 0,
  "HasDynamicFilter": 0,
  "HasDynamicBias": 0,
  "HasResidual": 0,
  "ConvXAsActInputIdx": -1,
  "BiasAsActInputIdx": -1,
  "ResAsActInputIdx": -1,
  "Activation": "NONE",
  "HasBias": 1,
  "HasReLU": 0,
  "TacticName": "sm50_xmma_fprop_conv3d_c1_k1_f32f32_f32_f32_ndhwcktrsc_ndhwc_tilesize64x8_threadsize64x2_general_alignC4",
  "TacticValue": "0xf7bc7502ac7dff9b",
  "StreamId": 0,
  "Metadata": "[ONNX Layer: /features.8/token_mixer/token_mixer.0/Conv]"
},{
  "Name": "/features.8/token_mixer/token_mixer.2/Conv",
  "LayerType": "CaskGemmConvolution",
  "Inputs": [
  {
    "Name": "/features.8/token_mixer/token_mixer.0/Conv_output_0",
    "Location": "Device",
    "Dimensions": [1,80,28,28],
    "Format/Datatype": "Channel major FP32 format where channel % 4 == 0"
  }],
  "Outputs": [
  {
    "Name": "/features.8/token_mixer/token_mixer.2/Conv_output_0",
    "Location": "Device",
    "Dimensions": [1,160,28,28],
    "Format/Datatype": "Channel major FP32 format where channel % 4 == 0"
  }],
  "ParameterType": "Convolution",
  "Kernel": [1,1],
  "PaddingMode": "kEXPLICIT_ROUND_DOWN",
  "PrePadding": [0,0],
  "PostPadding": [0,0],
  "Stride": [1,1],
  "Dilation": [1,1],
  "OutMaps": 160,
  "Groups": 1,
  "Weights": {"Type": "Float", "Count": 12800},
  "Bias": {"Type": "Float", "Count": 160},
  "HasSparseWeights": 0,
  "HasDynamicFilter": 0,
  "HasDynamicBias": 0,
  "HasResidual": 0,
  "ConvXAsActInputIdx": -1,
  "BiasAsActInputIdx": -1,
  "ResAsActInputIdx": -1,
  "Activation": "NONE",
  "TacticName": "sm86_xmma_gemm_f32f32_tf32f32_f32_tn_n_tilesize64x64x64_stage3_warpsize2x2x1_tensor16x8x8",
  "TacticValue": "0x0000000000020338",
  "StreamId": 0,
  "Metadata": "[ONNX Layer: /features.8/token_mixer/token_mixer.2/Conv]"
},{
  "Name": "/features.8/channel_mixer/m/m.0/Conv",
  "LayerType": "CaskGemmConvolution",
  "Inputs": [
  {
    "Name": "/features.8/token_mixer/token_mixer.2/Conv_output_0",
    "Location": "Device",
    "Dimensions": [1,160,28,28],
    "Format/Datatype": "Channel major FP32 format where channel % 4 == 0"
  }],
  "Outputs": [
  {
    "Name": "/features.8/channel_mixer/m/m.0/Conv_output_0",
    "Location": "Device",
    "Dimensions": [1,320,28,28],
    "Format/Datatype": "Channel major FP32 format where channel % 4 == 0"
  }],
  "ParameterType": "Convolution",
  "Kernel": [1,1],
  "PaddingMode": "kEXPLICIT_ROUND_DOWN",
  "PrePadding": [0,0],
  "PostPadding": [0,0],
  "Stride": [1,1],
  "Dilation": [1,1],
  "OutMaps": 320,
  "Groups": 1,
  "Weights": {"Type": "Float", "Count": 51200},
  "Bias": {"Type": "Float", "Count": 320},
  "HasSparseWeights": 0,
  "HasDynamicFilter": 0,
  "HasDynamicBias": 0,
  "HasResidual": 0,
  "ConvXAsActInputIdx": -1,
  "BiasAsActInputIdx": -1,
  "ResAsActInputIdx": -1,
  "Activation": "NONE",
  "TacticName": "sm80_xmma_gemm_f32f32_tf32f32_f32_nn_n_tilesize64x128x16_stage4_warpsize2x2x1_tensor16x8x8",
  "TacticValue": "0x00000000000205cd",
  "StreamId": 0,
  "Metadata": "[ONNX Layer: /features.8/channel_mixer/m/m.0/Conv]"
},{
  "Name": "PWN(PWN(PWN(PWN(PWN(/features.8/channel_mixer/m/m.1/Constant_output_0 + (Unnamed Layer* 140) [Shuffle], /features.8/channel_mixer/m/m.1/Div), PWN(/features.8/channel_mixer/m/m.1/Erf)), /features.8/channel_mixer/m/m.1/Constant_1_output_0 + (Unnamed Layer* 144) [Shuffle] + /features.8/channel_mixer/m/m.1/Add), /features.8/channel_mixer/m/m.1/Mul), /features.8/channel_mixer/m/m.1/Constant_2_output_0 + (Unnamed Layer* 148) [Shuffle] + /features.8/channel_mixer/m/m.1/Mul_1)",
  "LayerType": "PointWiseV2",
  "Inputs": [
  {
    "Name": "/features.8/channel_mixer/m/m.0/Conv_output_0",
    "Location": "Device",
    "Dimensions": [1,320,28,28],
    "Format/Datatype": "Channel major FP32 format where channel % 4 == 0"
  }],
  "Outputs": [
  {
    "Name": "/features.8/channel_mixer/m/m.1/Mul_1_output_0",
    "Location": "Device",
    "Dimensions": [1,320,28,28],
    "Format/Datatype": "Channel major FP32 format where channel % 4 == 0"
  }],
  "ParameterType": "PointWise",
  "ParameterSubType": "PointWiseExpression",
  "NbInputArgs": 1,
  "InputArgs": ["arg0"],
  "NbOutputVars": 1,
  "OutputVars": ["var4"],
  "NbParams": 0,
  "Params": [],
  "NbLiterals": 5,
  "Literals": ["1.414214e+00f", "0.000000e+00f", "1.000000e+00f", "0.000000e+00f", "5.000000e-01f"],
  "NbOperations": 5,
  "Operations": ["auto const var0 = pwgen::iDiv(arg0, literal0);", "auto const var1 = pwgen::iErf(var0);", "auto const var2 = pwgen::iPlus(var1, literal2);", "auto const var3 = pwgen::iMul(arg0, var2);", "auto const var4 = pwgen::iMul(var3, literal4);"],
  "TacticValue": "0x0000000000000016",
  "StreamId": 0,
  "Metadata": "[ONNX Layer: /features.8/channel_mixer/m/m.1/Div]\u001e[ONNX Layer: /features.8/channel_mixer/m/m.1/Erf]\u001e[ONNX Layer: /features.8/channel_mixer/m/m.1/Add]\u001e[ONNX Layer: /features.8/channel_mixer/m/m.1/Mul]\u001e[ONNX Layer: /features.8/channel_mixer/m/m.1/Mul_1]"
},{
  "Name": "/features.8/channel_mixer/m/m.2/Conv + /features.8/channel_mixer/Add",
  "LayerType": "CaskGemmConvolution",
  "Inputs": [
  {
    "Name": "/features.8/channel_mixer/m/m.1/Mul_1_output_0",
    "Location": "Device",
    "Dimensions": [1,320,28,28],
    "Format/Datatype": "Channel major FP32 format where channel % 4 == 0"
  },
  {
    "Name": "/features.8/token_mixer/token_mixer.2/Conv_output_0",
    "Location": "Device",
    "Dimensions": [1,160,28,28],
    "Format/Datatype": "Channel major FP32 format where channel % 4 == 0"
  }],
  "Outputs": [
  {
    "Name": "/features.8/channel_mixer/Add_output_0",
    "Location": "Device",
    "Dimensions": [1,160,28,28],
    "Format/Datatype": "Channel major FP32 format where channel % 4 == 0"
  }],
  "ParameterType": "Convolution",
  "Kernel": [1,1],
  "PaddingMode": "kEXPLICIT_ROUND_DOWN",
  "PrePadding": [0,0],
  "PostPadding": [0,0],
  "Stride": [1,1],
  "Dilation": [1,1],
  "OutMaps": 160,
  "Groups": 1,
  "Weights": {"Type": "Float", "Count": 51200},
  "Bias": {"Type": "Float", "Count": 160},
  "HasSparseWeights": 0,
  "HasDynamicFilter": 0,
  "HasDynamicBias": 0,
  "HasResidual": 1,
  "ConvXAsActInputIdx": -1,
  "BiasAsActInputIdx": -1,
  "ResAsActInputIdx": -1,
  "Activation": "NONE",
  "TacticName": "sm86_xmma_gemm_f32f32_tf32f32_f32_tn_n_tilesize64x64x64_stage3_warpsize2x2x1_tensor16x8x8",
  "TacticValue": "0x0000000000020338",
  "StreamId": 0,
  "Metadata": "[ONNX Layer: /features.8/channel_mixer/m/m.2/Conv]\u001e[ONNX Layer: /features.8/channel_mixer/Add]"
},{
  "Name": "/features.9/token_mixer/token_mixer.0/Conv",
  "LayerType": "CaskConvolution",
  "Inputs": [
  {
    "Name": "/features.8/channel_mixer/Add_output_0",
    "Location": "Device",
    "Dimensions": [1,160,28,28],
    "Format/Datatype": "Channel major FP32 format where channel % 4 == 0"
  }],
  "Outputs": [
  {
    "Name": "/features.9/token_mixer/token_mixer.0/Conv_output_0",
    "Location": "Device",
    "Dimensions": [1,160,28,28],
    "Format/Datatype": "Channel major FP32 format where channel % 4 == 0"
  }],
  "ParameterType": "Convolution",
  "Kernel": [3,3],
  "PaddingMode": "kEXPLICIT_ROUND_DOWN",
  "PrePadding": [1,1],
  "PostPadding": [1,1],
  "Stride": [1,1],
  "Dilation": [1,1],
  "OutMaps": 160,
  "Groups": 160,
  "Weights": {"Type": "Float", "Count": 1440},
  "Bias": {"Type": "Float", "Count": 160},
  "HasSparseWeights": 0,
  "HasDynamicFilter": 0,
  "HasDynamicBias": 0,
  "HasResidual": 0,
  "ConvXAsActInputIdx": -1,
  "BiasAsActInputIdx": -1,
  "ResAsActInputIdx": -1,
  "Activation": "NONE",
  "HasBias": 1,
  "HasReLU": 0,
  "TacticName": "sm50_xmma_convolution_trt_depthwiseFP32NHWC4_fp32nhwcx4_fp32nhwcx4_fp32kcrs",
  "TacticValue": "0x2cac8ad6921b6398",
  "StreamId": 0,
  "Metadata": "[ONNX Layer: /features.9/token_mixer/token_mixer.0/Conv]"
},{
  "Name": "/features.9/token_mixer/token_mixer.1/ReduceMean",
  "LayerType": "CaskPooling",
  "Inputs": [
  {
    "Name": "/features.9/token_mixer/token_mixer.0/Conv_output_0",
    "Location": "Device",
    "Dimensions": [1,160,28,28],
    "Format/Datatype": "Channel major FP32 format where channel % 4 == 0"
  }],
  "Outputs": [
  {
    "Name": "/features.9/token_mixer/token_mixer.1/ReduceMean_output_0",
    "Location": "Device",
    "Dimensions": [1,160,1,1],
    "Format/Datatype": "Channel major FP32 format where channel % 4 == 0"
  }],
  "ParameterType": "Pooling",
  "PoolingType": "AVERAGE",
  "WindowSize": [28,28],
  "PaddingMode": "kEXPLICIT_ROUND_DOWN",
  "PrePadding": [0,0],
  "PostPadding": [0,0],
  "Stride": [1,1],
  "BlendFactor": 0,
  "AverageCountExcludesPadding": 1,
  "TacticName": "sm50_xmma_pooling_fw_4d_FP32FP32NHWC_Average_FastDiv_CAlign4",
  "TacticValue": "0xfab3e2ee1c085a9a",
  "StreamId": 0,
  "Metadata": "[ONNX Layer: /features.9/token_mixer/token_mixer.1/ReduceMean]"
},{
  "Name": "Reformatting CopyNode for Input Tensor 0 to /features.9/token_mixer/token_mixer.1/fc1/Conv + /features.9/token_mixer/token_mixer.1/act/Relu",
  "LayerType": "NoOp",
  "Inputs": [
  {
    "Name": "/features.9/token_mixer/token_mixer.1/ReduceMean_output_0",
    "Location": "Device",
    "Dimensions": [1,160,1,1],
    "Format/Datatype": "Channel major FP32 format where channel % 4 == 0"
  }],
  "Outputs": [
  {
    "Name": "Reformatted Input Tensor 0 to /features.9/token_mixer/token_mixer.1/fc1/Conv + /features.9/token_mixer/token_mixer.1/act/Relu",
    "Location": "Device",
    "Dimensions": [1,160,1,1],
    "Format/Datatype": "Row major linear FP32"
  }],
  "TacticValue": "0x0000000000000000",
  "StreamId": 0,
  "Metadata": ""
},{
  "Name": "/features.9/token_mixer/token_mixer.1/fc1/Conv + /features.9/token_mixer/token_mixer.1/act/Relu",
  "LayerType": "CaskGemmConvolution",
  "Inputs": [
  {
    "Name": "Reformatted Input Tensor 0 to /features.9/token_mixer/token_mixer.1/fc1/Conv + /features.9/token_mixer/token_mixer.1/act/Relu",
    "Location": "Device",
    "Dimensions": [1,160,1,1],
    "Format/Datatype": "Row major linear FP32"
  }],
  "Outputs": [
  {
    "Name": "/features.9/token_mixer/token_mixer.1/act/Relu_output_0",
    "Location": "Device",
    "Dimensions": [1,40,1,1],
    "Format/Datatype": "Row major linear FP32"
  }],
  "ParameterType": "Convolution",
  "Kernel": [1,1],
  "PaddingMode": "kEXPLICIT_ROUND_DOWN",
  "PrePadding": [0,0],
  "PostPadding": [0,0],
  "Stride": [1,1],
  "Dilation": [1,1],
  "OutMaps": 40,
  "Groups": 1,
  "Weights": {"Type": "Float", "Count": 6400},
  "Bias": {"Type": "Float", "Count": 40},
  "HasSparseWeights": 0,
  "HasDynamicFilter": 0,
  "HasDynamicBias": 0,
  "HasResidual": 0,
  "ConvXAsActInputIdx": -1,
  "BiasAsActInputIdx": -1,
  "ResAsActInputIdx": -1,
  "Activation": "RELU",
  "TacticName": "sm50_xmma_cublas_gemvx_f32f32_f32_f32_tn_n_int32_unit_n_launch_param8x32x32_strided_unit_stride",
  "TacticValue": "0x00000000000204d1",
  "StreamId": 0,
  "Metadata": "[ONNX Layer: /features.9/token_mixer/token_mixer.1/fc1/Conv]\u001e[ONNX Layer: /features.9/token_mixer/token_mixer.1/act/Relu]"
},{
  "Name": "/features.9/token_mixer/token_mixer.1/fc2/Conv",
  "LayerType": "CaskGemmConvolution",
  "Inputs": [
  {
    "Name": "/features.9/token_mixer/token_mixer.1/act/Relu_output_0",
    "Location": "Device",
    "Dimensions": [1,40,1,1],
    "Format/Datatype": "Row major linear FP32"
  }],
  "Outputs": [
  {
    "Name": "/features.9/token_mixer/token_mixer.1/fc2/Conv_output_0",
    "Location": "Device",
    "Dimensions": [1,160,1,1],
    "Format/Datatype": "Row major linear FP32"
  }],
  "ParameterType": "Convolution",
  "Kernel": [1,1],
  "PaddingMode": "kEXPLICIT_ROUND_DOWN",
  "PrePadding": [0,0],
  "PostPadding": [0,0],
  "Stride": [1,1],
  "Dilation": [1,1],
  "OutMaps": 160,
  "Groups": 1,
  "Weights": {"Type": "Float", "Count": 6400},
  "Bias": {"Type": "Float", "Count": 160},
  "HasSparseWeights": 0,
  "HasDynamicFilter": 0,
  "HasDynamicBias": 0,
  "HasResidual": 0,
  "ConvXAsActInputIdx": -1,
  "BiasAsActInputIdx": -1,
  "ResAsActInputIdx": -1,
  "Activation": "NONE",
  "TacticName": "sm50_xmma_cublas_gemvx_f32f32_f32_f32_nn_n_int32_unit_n_launch_param64x2x1_strided_unit_stride",
  "TacticValue": "0x00000000000206fc",
  "StreamId": 0,
  "Metadata": "[ONNX Layer: /features.9/token_mixer/token_mixer.1/fc2/Conv]"
},{
  "Name": "Reformatting CopyNode for Input Tensor 0 to PWN(PWN(/features.9/token_mixer/token_mixer.1/gate/Sigmoid), /features.9/token_mixer/token_mixer.1/Mul)",
  "LayerType": "NoOp",
  "Inputs": [
  {
    "Name": "/features.9/token_mixer/token_mixer.1/fc2/Conv_output_0",
    "Location": "Device",
    "Dimensions": [1,160,1,1],
    "Format/Datatype": "Row major linear FP32"
  }],
  "Outputs": [
  {
    "Name": "Reformatted Input Tensor 0 to PWN(PWN(/features.9/token_mixer/token_mixer.1/gate/Sigmoid), /features.9/token_mixer/token_mixer.1/Mul)",
    "Location": "Device",
    "Dimensions": [1,160,1,1],
    "Format/Datatype": "Channel major FP32 format where channel % 4 == 0"
  }],
  "TacticValue": "0x0000000000000000",
  "StreamId": 0,
  "Metadata": ""
},{
  "Name": "PWN(PWN(/features.9/token_mixer/token_mixer.1/gate/Sigmoid), /features.9/token_mixer/token_mixer.1/Mul)",
  "LayerType": "PointWiseV2",
  "Inputs": [
  {
    "Name": "Reformatted Input Tensor 0 to PWN(PWN(/features.9/token_mixer/token_mixer.1/gate/Sigmoid), /features.9/token_mixer/token_mixer.1/Mul)",
    "Location": "Device",
    "Dimensions": [1,160,1,1],
    "Format/Datatype": "Channel major FP32 format where channel % 4 == 0"
  },
  {
    "Name": "/features.9/token_mixer/token_mixer.0/Conv_output_0",
    "Location": "Device",
    "Dimensions": [1,160,28,28],
    "Format/Datatype": "Channel major FP32 format where channel % 4 == 0"
  }],
  "Outputs": [
  {
    "Name": "/features.9/token_mixer/token_mixer.1/Mul_output_0",
    "Location": "Device",
    "Dimensions": [1,160,28,28],
    "Format/Datatype": "Channel major FP32 format where channel % 4 == 0"
  }],
  "ParameterType": "PointWise",
  "ParameterSubType": "PointWiseExpression",
  "NbInputArgs": 2,
  "InputArgs": ["arg0", "arg1"],
  "NbOutputVars": 1,
  "OutputVars": ["var4"],
  "NbParams": 0,
  "Params": [],
  "NbLiterals": 5,
  "Literals": ["0.000000e+00f", "1.000000e+00f", "0.000000e+00f", "0.000000e+00f", "1.000000e+00f"],
  "NbOperations": 5,
  "Operations": ["auto const var0 = pwgen::iNeg(arg0);", "auto const var1 = pwgen::iExp(var0);", "auto const var2 = pwgen::iPlus(literal4, var1);", "auto const var3 = pwgen::iRcp(var2);", "auto const var4 = pwgen::iMul(arg1, var3);"],
  "TacticValue": "0x0000000000000000",
  "StreamId": 0,
  "Metadata": "[ONNX Layer: /features.9/token_mixer/token_mixer.1/gate/Sigmoid]\u001e[ONNX Layer: /features.9/token_mixer/token_mixer.1/Mul]"
},{
  "Name": "/features.9/channel_mixer/m/m.0/Conv",
  "LayerType": "CaskGemmConvolution",
  "Inputs": [
  {
    "Name": "/features.9/token_mixer/token_mixer.1/Mul_output_0",
    "Location": "Device",
    "Dimensions": [1,160,28,28],
    "Format/Datatype": "Channel major FP32 format where channel % 4 == 0"
  }],
  "Outputs": [
  {
    "Name": "/features.9/channel_mixer/m/m.0/Conv_output_0",
    "Location": "Device",
    "Dimensions": [1,320,28,28],
    "Format/Datatype": "Channel major FP32 format where channel % 4 == 0"
  }],
  "ParameterType": "Convolution",
  "Kernel": [1,1],
  "PaddingMode": "kEXPLICIT_ROUND_DOWN",
  "PrePadding": [0,0],
  "PostPadding": [0,0],
  "Stride": [1,1],
  "Dilation": [1,1],
  "OutMaps": 320,
  "Groups": 1,
  "Weights": {"Type": "Float", "Count": 51200},
  "Bias": {"Type": "Float", "Count": 320},
  "HasSparseWeights": 0,
  "HasDynamicFilter": 0,
  "HasDynamicBias": 0,
  "HasResidual": 0,
  "ConvXAsActInputIdx": -1,
  "BiasAsActInputIdx": -1,
  "ResAsActInputIdx": -1,
  "Activation": "NONE",
  "TacticName": "sm80_xmma_gemm_f32f32_tf32f32_f32_nn_n_tilesize64x128x16_stage4_warpsize2x2x1_tensor16x8x8",
  "TacticValue": "0x00000000000205cd",
  "StreamId": 0,
  "Metadata": "[ONNX Layer: /features.9/channel_mixer/m/m.0/Conv]"
},{
  "Name": "PWN(PWN(PWN(PWN(PWN(/features.9/channel_mixer/m/m.1/Constant_output_0 + (Unnamed Layer* 161) [Shuffle], /features.9/channel_mixer/m/m.1/Div), PWN(/features.9/channel_mixer/m/m.1/Erf)), /features.9/channel_mixer/m/m.1/Constant_1_output_0 + (Unnamed Layer* 165) [Shuffle] + /features.9/channel_mixer/m/m.1/Add), /features.9/channel_mixer/m/m.1/Mul), /features.9/channel_mixer/m/m.1/Constant_2_output_0 + (Unnamed Layer* 169) [Shuffle] + /features.9/channel_mixer/m/m.1/Mul_1)",
  "LayerType": "PointWiseV2",
  "Inputs": [
  {
    "Name": "/features.9/channel_mixer/m/m.0/Conv_output_0",
    "Location": "Device",
    "Dimensions": [1,320,28,28],
    "Format/Datatype": "Channel major FP32 format where channel % 4 == 0"
  }],
  "Outputs": [
  {
    "Name": "/features.9/channel_mixer/m/m.1/Mul_1_output_0",
    "Location": "Device",
    "Dimensions": [1,320,28,28],
    "Format/Datatype": "Channel major FP32 format where channel % 4 == 0"
  }],
  "ParameterType": "PointWise",
  "ParameterSubType": "PointWiseExpression",
  "NbInputArgs": 1,
  "InputArgs": ["arg0"],
  "NbOutputVars": 1,
  "OutputVars": ["var4"],
  "NbParams": 0,
  "Params": [],
  "NbLiterals": 5,
  "Literals": ["1.414214e+00f", "0.000000e+00f", "1.000000e+00f", "0.000000e+00f", "5.000000e-01f"],
  "NbOperations": 5,
  "Operations": ["auto const var0 = pwgen::iDiv(arg0, literal0);", "auto const var1 = pwgen::iErf(var0);", "auto const var2 = pwgen::iPlus(var1, literal2);", "auto const var3 = pwgen::iMul(arg0, var2);", "auto const var4 = pwgen::iMul(var3, literal4);"],
  "TacticValue": "0x0000000000000016",
  "StreamId": 0,
  "Metadata": "[ONNX Layer: /features.9/channel_mixer/m/m.1/Div]\u001e[ONNX Layer: /features.9/channel_mixer/m/m.1/Erf]\u001e[ONNX Layer: /features.9/channel_mixer/m/m.1/Add]\u001e[ONNX Layer: /features.9/channel_mixer/m/m.1/Mul]\u001e[ONNX Layer: /features.9/channel_mixer/m/m.1/Mul_1]"
},{
  "Name": "/features.9/channel_mixer/m/m.2/Conv + /features.9/channel_mixer/Add",
  "LayerType": "CaskGemmConvolution",
  "Inputs": [
  {
    "Name": "/features.9/channel_mixer/m/m.1/Mul_1_output_0",
    "Location": "Device",
    "Dimensions": [1,320,28,28],
    "Format/Datatype": "Channel major FP32 format where channel % 4 == 0"
  },
  {
    "Name": "/features.9/token_mixer/token_mixer.1/Mul_output_0",
    "Location": "Device",
    "Dimensions": [1,160,28,28],
    "Format/Datatype": "Channel major FP32 format where channel % 4 == 0"
  }],
  "Outputs": [
  {
    "Name": "/features.9/channel_mixer/Add_output_0",
    "Location": "Device",
    "Dimensions": [1,160,28,28],
    "Format/Datatype": "Channel major FP32 format where channel % 4 == 0"
  }],
  "ParameterType": "Convolution",
  "Kernel": [1,1],
  "PaddingMode": "kEXPLICIT_ROUND_DOWN",
  "PrePadding": [0,0],
  "PostPadding": [0,0],
  "Stride": [1,1],
  "Dilation": [1,1],
  "OutMaps": 160,
  "Groups": 1,
  "Weights": {"Type": "Float", "Count": 51200},
  "Bias": {"Type": "Float", "Count": 160},
  "HasSparseWeights": 0,
  "HasDynamicFilter": 0,
  "HasDynamicBias": 0,
  "HasResidual": 1,
  "ConvXAsActInputIdx": -1,
  "BiasAsActInputIdx": -1,
  "ResAsActInputIdx": -1,
  "Activation": "NONE",
  "TacticName": "sm86_xmma_gemm_f32f32_tf32f32_f32_tn_n_tilesize64x64x64_stage3_warpsize2x2x1_tensor16x8x8",
  "TacticValue": "0x0000000000020338",
  "StreamId": 0,
  "Metadata": "[ONNX Layer: /features.9/channel_mixer/m/m.2/Conv]\u001e[ONNX Layer: /features.9/channel_mixer/Add]"
},{
  "Name": "/features.10/token_mixer/token_mixer.0/Conv",
  "LayerType": "CaskConvolution",
  "Inputs": [
  {
    "Name": "/features.9/channel_mixer/Add_output_0",
    "Location": "Device",
    "Dimensions": [1,160,28,28],
    "Format/Datatype": "Channel major FP32 format where channel % 4 == 0"
  }],
  "Outputs": [
  {
    "Name": "/features.10/token_mixer/token_mixer.0/Conv_output_0",
    "Location": "Device",
    "Dimensions": [1,160,28,28],
    "Format/Datatype": "Channel major FP32 format where channel % 4 == 0"
  }],
  "ParameterType": "Convolution",
  "Kernel": [3,3],
  "PaddingMode": "kEXPLICIT_ROUND_DOWN",
  "PrePadding": [1,1],
  "PostPadding": [1,1],
  "Stride": [1,1],
  "Dilation": [1,1],
  "OutMaps": 160,
  "Groups": 160,
  "Weights": {"Type": "Float", "Count": 1440},
  "Bias": {"Type": "Float", "Count": 160},
  "HasSparseWeights": 0,
  "HasDynamicFilter": 0,
  "HasDynamicBias": 0,
  "HasResidual": 0,
  "ConvXAsActInputIdx": -1,
  "BiasAsActInputIdx": -1,
  "ResAsActInputIdx": -1,
  "Activation": "NONE",
  "HasBias": 1,
  "HasReLU": 0,
  "TacticName": "sm50_xmma_convolution_trt_depthwiseFP32NHWC4_fp32nhwcx4_fp32nhwcx4_fp32kcrs",
  "TacticValue": "0x2cac8ad6921b6398",
  "StreamId": 0,
  "Metadata": "[ONNX Layer: /features.10/token_mixer/token_mixer.0/Conv]"
},{
  "Name": "/features.10/channel_mixer/m/m.0/Conv",
  "LayerType": "CaskGemmConvolution",
  "Inputs": [
  {
    "Name": "/features.10/token_mixer/token_mixer.0/Conv_output_0",
    "Location": "Device",
    "Dimensions": [1,160,28,28],
    "Format/Datatype": "Channel major FP32 format where channel % 4 == 0"
  }],
  "Outputs": [
  {
    "Name": "/features.10/channel_mixer/m/m.0/Conv_output_0",
    "Location": "Device",
    "Dimensions": [1,320,28,28],
    "Format/Datatype": "Channel major FP32 format where channel % 4 == 0"
  }],
  "ParameterType": "Convolution",
  "Kernel": [1,1],
  "PaddingMode": "kEXPLICIT_ROUND_DOWN",
  "PrePadding": [0,0],
  "PostPadding": [0,0],
  "Stride": [1,1],
  "Dilation": [1,1],
  "OutMaps": 320,
  "Groups": 1,
  "Weights": {"Type": "Float", "Count": 51200},
  "Bias": {"Type": "Float", "Count": 320},
  "HasSparseWeights": 0,
  "HasDynamicFilter": 0,
  "HasDynamicBias": 0,
  "HasResidual": 0,
  "ConvXAsActInputIdx": -1,
  "BiasAsActInputIdx": -1,
  "ResAsActInputIdx": -1,
  "Activation": "NONE",
  "TacticName": "sm80_xmma_gemm_f32f32_tf32f32_f32_nn_n_tilesize64x128x16_stage4_warpsize2x2x1_tensor16x8x8",
  "TacticValue": "0x00000000000205cd",
  "StreamId": 0,
  "Metadata": "[ONNX Layer: /features.10/channel_mixer/m/m.0/Conv]"
},{
  "Name": "PWN(PWN(PWN(PWN(PWN(/features.10/channel_mixer/m/m.1/Constant_output_0 + (Unnamed Layer* 176) [Shuffle], /features.10/channel_mixer/m/m.1/Div), PWN(/features.10/channel_mixer/m/m.1/Erf)), /features.10/channel_mixer/m/m.1/Constant_1_output_0 + (Unnamed Layer* 180) [Shuffle] + /features.10/channel_mixer/m/m.1/Add), /features.10/channel_mixer/m/m.1/Mul), /features.10/channel_mixer/m/m.1/Constant_2_output_0 + (Unnamed Layer* 184) [Shuffle] + /features.10/channel_mixer/m/m.1/Mul_1)",
  "LayerType": "PointWiseV2",
  "Inputs": [
  {
    "Name": "/features.10/channel_mixer/m/m.0/Conv_output_0",
    "Location": "Device",
    "Dimensions": [1,320,28,28],
    "Format/Datatype": "Channel major FP32 format where channel % 4 == 0"
  }],
  "Outputs": [
  {
    "Name": "/features.10/channel_mixer/m/m.1/Mul_1_output_0",
    "Location": "Device",
    "Dimensions": [1,320,28,28],
    "Format/Datatype": "Channel major FP32 format where channel % 4 == 0"
  }],
  "ParameterType": "PointWise",
  "ParameterSubType": "PointWiseExpression",
  "NbInputArgs": 1,
  "InputArgs": ["arg0"],
  "NbOutputVars": 1,
  "OutputVars": ["var4"],
  "NbParams": 0,
  "Params": [],
  "NbLiterals": 5,
  "Literals": ["1.414214e+00f", "0.000000e+00f", "1.000000e+00f", "0.000000e+00f", "5.000000e-01f"],
  "NbOperations": 5,
  "Operations": ["auto const var0 = pwgen::iDiv(arg0, literal0);", "auto const var1 = pwgen::iErf(var0);", "auto const var2 = pwgen::iPlus(var1, literal2);", "auto const var3 = pwgen::iMul(arg0, var2);", "auto const var4 = pwgen::iMul(var3, literal4);"],
  "TacticValue": "0x0000000000000016",
  "StreamId": 0,
  "Metadata": "[ONNX Layer: /features.10/channel_mixer/m/m.1/Div]\u001e[ONNX Layer: /features.10/channel_mixer/m/m.1/Erf]\u001e[ONNX Layer: /features.10/channel_mixer/m/m.1/Add]\u001e[ONNX Layer: /features.10/channel_mixer/m/m.1/Mul]\u001e[ONNX Layer: /features.10/channel_mixer/m/m.1/Mul_1]"
},{
  "Name": "/features.10/channel_mixer/m/m.2/Conv + /features.10/channel_mixer/Add",
  "LayerType": "CaskGemmConvolution",
  "Inputs": [
  {
    "Name": "/features.10/channel_mixer/m/m.1/Mul_1_output_0",
    "Location": "Device",
    "Dimensions": [1,320,28,28],
    "Format/Datatype": "Channel major FP32 format where channel % 4 == 0"
  },
  {
    "Name": "/features.10/token_mixer/token_mixer.0/Conv_output_0",
    "Location": "Device",
    "Dimensions": [1,160,28,28],
    "Format/Datatype": "Channel major FP32 format where channel % 4 == 0"
  }],
  "Outputs": [
  {
    "Name": "/features.10/channel_mixer/Add_output_0",
    "Location": "Device",
    "Dimensions": [1,160,28,28],
    "Format/Datatype": "Channel major FP32 format where channel % 4 == 0"
  }],
  "ParameterType": "Convolution",
  "Kernel": [1,1],
  "PaddingMode": "kEXPLICIT_ROUND_DOWN",
  "PrePadding": [0,0],
  "PostPadding": [0,0],
  "Stride": [1,1],
  "Dilation": [1,1],
  "OutMaps": 160,
  "Groups": 1,
  "Weights": {"Type": "Float", "Count": 51200},
  "Bias": {"Type": "Float", "Count": 160},
  "HasSparseWeights": 0,
  "HasDynamicFilter": 0,
  "HasDynamicBias": 0,
  "HasResidual": 1,
  "ConvXAsActInputIdx": -1,
  "BiasAsActInputIdx": -1,
  "ResAsActInputIdx": -1,
  "Activation": "NONE",
  "TacticName": "sm86_xmma_gemm_f32f32_tf32f32_f32_tn_n_tilesize64x64x64_stage3_warpsize2x2x1_tensor16x8x8",
  "TacticValue": "0x0000000000020338",
  "StreamId": 0,
  "Metadata": "[ONNX Layer: /features.10/channel_mixer/m/m.2/Conv]\u001e[ONNX Layer: /features.10/channel_mixer/Add]"
},{
  "Name": "/features.11/token_mixer/token_mixer.0/Conv",
  "LayerType": "CaskConvolution",
  "Inputs": [
  {
    "Name": "/features.10/channel_mixer/Add_output_0",
    "Location": "Device",
    "Dimensions": [1,160,28,28],
    "Format/Datatype": "Channel major FP32 format where channel % 4 == 0"
  }],
  "Outputs": [
  {
    "Name": "/features.11/token_mixer/token_mixer.0/Conv_output_0",
    "Location": "Device",
    "Dimensions": [1,160,28,28],
    "Format/Datatype": "Channel major FP32 format where channel % 4 == 0"
  }],
  "ParameterType": "Convolution",
  "Kernel": [3,3],
  "PaddingMode": "kEXPLICIT_ROUND_DOWN",
  "PrePadding": [1,1],
  "PostPadding": [1,1],
  "Stride": [1,1],
  "Dilation": [1,1],
  "OutMaps": 160,
  "Groups": 160,
  "Weights": {"Type": "Float", "Count": 1440},
  "Bias": {"Type": "Float", "Count": 160},
  "HasSparseWeights": 0,
  "HasDynamicFilter": 0,
  "HasDynamicBias": 0,
  "HasResidual": 0,
  "ConvXAsActInputIdx": -1,
  "BiasAsActInputIdx": -1,
  "ResAsActInputIdx": -1,
  "Activation": "NONE",
  "HasBias": 1,
  "HasReLU": 0,
  "TacticName": "sm50_xmma_convolution_trt_depthwiseFP32NHWC4_fp32nhwcx4_fp32nhwcx4_fp32kcrs",
  "TacticValue": "0x2cac8ad6921b6398",
  "StreamId": 0,
  "Metadata": "[ONNX Layer: /features.11/token_mixer/token_mixer.0/Conv]"
},{
  "Name": "/features.11/token_mixer/token_mixer.1/ReduceMean",
  "LayerType": "CaskPooling",
  "Inputs": [
  {
    "Name": "/features.11/token_mixer/token_mixer.0/Conv_output_0",
    "Location": "Device",
    "Dimensions": [1,160,28,28],
    "Format/Datatype": "Channel major FP32 format where channel % 4 == 0"
  }],
  "Outputs": [
  {
    "Name": "/features.11/token_mixer/token_mixer.1/ReduceMean_output_0",
    "Location": "Device",
    "Dimensions": [1,160,1,1],
    "Format/Datatype": "Channel major FP32 format where channel % 4 == 0"
  }],
  "ParameterType": "Pooling",
  "PoolingType": "AVERAGE",
  "WindowSize": [28,28],
  "PaddingMode": "kEXPLICIT_ROUND_DOWN",
  "PrePadding": [0,0],
  "PostPadding": [0,0],
  "Stride": [1,1],
  "BlendFactor": 0,
  "AverageCountExcludesPadding": 1,
  "TacticName": "sm50_xmma_pooling_fw_4d_FP32FP32NHWC_Average_FastDiv_CAlign4",
  "TacticValue": "0xfab3e2ee1c085a9a",
  "StreamId": 0,
  "Metadata": "[ONNX Layer: /features.11/token_mixer/token_mixer.1/ReduceMean]"
},{
  "Name": "Reformatting CopyNode for Input Tensor 0 to /features.11/token_mixer/token_mixer.1/fc1/Conv + /features.11/token_mixer/token_mixer.1/act/Relu",
  "LayerType": "NoOp",
  "Inputs": [
  {
    "Name": "/features.11/token_mixer/token_mixer.1/ReduceMean_output_0",
    "Location": "Device",
    "Dimensions": [1,160,1,1],
    "Format/Datatype": "Channel major FP32 format where channel % 4 == 0"
  }],
  "Outputs": [
  {
    "Name": "Reformatted Input Tensor 0 to /features.11/token_mixer/token_mixer.1/fc1/Conv + /features.11/token_mixer/token_mixer.1/act/Relu",
    "Location": "Device",
    "Dimensions": [1,160,1,1],
    "Format/Datatype": "Row major linear FP32"
  }],
  "TacticValue": "0x0000000000000000",
  "StreamId": 0,
  "Metadata": ""
},{
  "Name": "/features.11/token_mixer/token_mixer.1/fc1/Conv + /features.11/token_mixer/token_mixer.1/act/Relu",
  "LayerType": "CaskGemmConvolution",
  "Inputs": [
  {
    "Name": "Reformatted Input Tensor 0 to /features.11/token_mixer/token_mixer.1/fc1/Conv + /features.11/token_mixer/token_mixer.1/act/Relu",
    "Location": "Device",
    "Dimensions": [1,160,1,1],
    "Format/Datatype": "Row major linear FP32"
  }],
  "Outputs": [
  {
    "Name": "/features.11/token_mixer/token_mixer.1/act/Relu_output_0",
    "Location": "Device",
    "Dimensions": [1,40,1,1],
    "Format/Datatype": "Row major linear FP32"
  }],
  "ParameterType": "Convolution",
  "Kernel": [1,1],
  "PaddingMode": "kEXPLICIT_ROUND_DOWN",
  "PrePadding": [0,0],
  "PostPadding": [0,0],
  "Stride": [1,1],
  "Dilation": [1,1],
  "OutMaps": 40,
  "Groups": 1,
  "Weights": {"Type": "Float", "Count": 6400},
  "Bias": {"Type": "Float", "Count": 40},
  "HasSparseWeights": 0,
  "HasDynamicFilter": 0,
  "HasDynamicBias": 0,
  "HasResidual": 0,
  "ConvXAsActInputIdx": -1,
  "BiasAsActInputIdx": -1,
  "ResAsActInputIdx": -1,
  "Activation": "RELU",
  "TacticName": "sm50_xmma_cublas_gemvx_f32f32_f32_f32_tn_n_int32_unit_n_launch_param8x32x32_strided_unit_stride",
  "TacticValue": "0x00000000000204d1",
  "StreamId": 0,
  "Metadata": "[ONNX Layer: /features.11/token_mixer/token_mixer.1/fc1/Conv]\u001e[ONNX Layer: /features.11/token_mixer/token_mixer.1/act/Relu]"
},{
  "Name": "/features.11/token_mixer/token_mixer.1/fc2/Conv",
  "LayerType": "CaskGemmConvolution",
  "Inputs": [
  {
    "Name": "/features.11/token_mixer/token_mixer.1/act/Relu_output_0",
    "Location": "Device",
    "Dimensions": [1,40,1,1],
    "Format/Datatype": "Row major linear FP32"
  }],
  "Outputs": [
  {
    "Name": "/features.11/token_mixer/token_mixer.1/fc2/Conv_output_0",
    "Location": "Device",
    "Dimensions": [1,160,1,1],
    "Format/Datatype": "Row major linear FP32"
  }],
  "ParameterType": "Convolution",
  "Kernel": [1,1],
  "PaddingMode": "kEXPLICIT_ROUND_DOWN",
  "PrePadding": [0,0],
  "PostPadding": [0,0],
  "Stride": [1,1],
  "Dilation": [1,1],
  "OutMaps": 160,
  "Groups": 1,
  "Weights": {"Type": "Float", "Count": 6400},
  "Bias": {"Type": "Float", "Count": 160},
  "HasSparseWeights": 0,
  "HasDynamicFilter": 0,
  "HasDynamicBias": 0,
  "HasResidual": 0,
  "ConvXAsActInputIdx": -1,
  "BiasAsActInputIdx": -1,
  "ResAsActInputIdx": -1,
  "Activation": "NONE",
  "TacticName": "sm50_xmma_cublas_gemvx_f32f32_f32_f32_nn_n_int32_unit_n_launch_param64x2x1_strided_unit_stride",
  "TacticValue": "0x00000000000206fc",
  "StreamId": 0,
  "Metadata": "[ONNX Layer: /features.11/token_mixer/token_mixer.1/fc2/Conv]"
},{
  "Name": "Reformatting CopyNode for Input Tensor 0 to PWN(PWN(/features.11/token_mixer/token_mixer.1/gate/Sigmoid), /features.11/token_mixer/token_mixer.1/Mul)",
  "LayerType": "NoOp",
  "Inputs": [
  {
    "Name": "/features.11/token_mixer/token_mixer.1/fc2/Conv_output_0",
    "Location": "Device",
    "Dimensions": [1,160,1,1],
    "Format/Datatype": "Row major linear FP32"
  }],
  "Outputs": [
  {
    "Name": "Reformatted Input Tensor 0 to PWN(PWN(/features.11/token_mixer/token_mixer.1/gate/Sigmoid), /features.11/token_mixer/token_mixer.1/Mul)",
    "Location": "Device",
    "Dimensions": [1,160,1,1],
    "Format/Datatype": "Channel major FP32 format where channel % 4 == 0"
  }],
  "TacticValue": "0x0000000000000000",
  "StreamId": 0,
  "Metadata": ""
},{
  "Name": "PWN(PWN(/features.11/token_mixer/token_mixer.1/gate/Sigmoid), /features.11/token_mixer/token_mixer.1/Mul)",
  "LayerType": "PointWiseV2",
  "Inputs": [
  {
    "Name": "Reformatted Input Tensor 0 to PWN(PWN(/features.11/token_mixer/token_mixer.1/gate/Sigmoid), /features.11/token_mixer/token_mixer.1/Mul)",
    "Location": "Device",
    "Dimensions": [1,160,1,1],
    "Format/Datatype": "Channel major FP32 format where channel % 4 == 0"
  },
  {
    "Name": "/features.11/token_mixer/token_mixer.0/Conv_output_0",
    "Location": "Device",
    "Dimensions": [1,160,28,28],
    "Format/Datatype": "Channel major FP32 format where channel % 4 == 0"
  }],
  "Outputs": [
  {
    "Name": "/features.11/token_mixer/token_mixer.1/Mul_output_0",
    "Location": "Device",
    "Dimensions": [1,160,28,28],
    "Format/Datatype": "Channel major FP32 format where channel % 4 == 0"
  }],
  "ParameterType": "PointWise",
  "ParameterSubType": "PointWiseExpression",
  "NbInputArgs": 2,
  "InputArgs": ["arg0", "arg1"],
  "NbOutputVars": 1,
  "OutputVars": ["var4"],
  "NbParams": 0,
  "Params": [],
  "NbLiterals": 5,
  "Literals": ["0.000000e+00f", "1.000000e+00f", "0.000000e+00f", "0.000000e+00f", "1.000000e+00f"],
  "NbOperations": 5,
  "Operations": ["auto const var0 = pwgen::iNeg(arg0);", "auto const var1 = pwgen::iExp(var0);", "auto const var2 = pwgen::iPlus(literal4, var1);", "auto const var3 = pwgen::iRcp(var2);", "auto const var4 = pwgen::iMul(arg1, var3);"],
  "TacticValue": "0x0000000000000000",
  "StreamId": 0,
  "Metadata": "[ONNX Layer: /features.11/token_mixer/token_mixer.1/gate/Sigmoid]\u001e[ONNX Layer: /features.11/token_mixer/token_mixer.1/Mul]"
},{
  "Name": "/features.11/channel_mixer/m/m.0/Conv",
  "LayerType": "CaskGemmConvolution",
  "Inputs": [
  {
    "Name": "/features.11/token_mixer/token_mixer.1/Mul_output_0",
    "Location": "Device",
    "Dimensions": [1,160,28,28],
    "Format/Datatype": "Channel major FP32 format where channel % 4 == 0"
  }],
  "Outputs": [
  {
    "Name": "/features.11/channel_mixer/m/m.0/Conv_output_0",
    "Location": "Device",
    "Dimensions": [1,320,28,28],
    "Format/Datatype": "Channel major FP32 format where channel % 4 == 0"
  }],
  "ParameterType": "Convolution",
  "Kernel": [1,1],
  "PaddingMode": "kEXPLICIT_ROUND_DOWN",
  "PrePadding": [0,0],
  "PostPadding": [0,0],
  "Stride": [1,1],
  "Dilation": [1,1],
  "OutMaps": 320,
  "Groups": 1,
  "Weights": {"Type": "Float", "Count": 51200},
  "Bias": {"Type": "Float", "Count": 320},
  "HasSparseWeights": 0,
  "HasDynamicFilter": 0,
  "HasDynamicBias": 0,
  "HasResidual": 0,
  "ConvXAsActInputIdx": -1,
  "BiasAsActInputIdx": -1,
  "ResAsActInputIdx": -1,
  "Activation": "NONE",
  "TacticName": "sm80_xmma_gemm_f32f32_tf32f32_f32_nn_n_tilesize64x128x16_stage4_warpsize2x2x1_tensor16x8x8",
  "TacticValue": "0x00000000000205cd",
  "StreamId": 0,
  "Metadata": "[ONNX Layer: /features.11/channel_mixer/m/m.0/Conv]"
},{
  "Name": "PWN(PWN(PWN(PWN(PWN(/features.11/channel_mixer/m/m.1/Constant_output_0 + (Unnamed Layer* 197) [Shuffle], /features.11/channel_mixer/m/m.1/Div), PWN(/features.11/channel_mixer/m/m.1/Erf)), /features.11/channel_mixer/m/m.1/Constant_1_output_0 + (Unnamed Layer* 201) [Shuffle] + /features.11/channel_mixer/m/m.1/Add), /features.11/channel_mixer/m/m.1/Mul), /features.11/channel_mixer/m/m.1/Constant_2_output_0 + (Unnamed Layer* 205) [Shuffle] + /features.11/channel_mixer/m/m.1/Mul_1)",
  "LayerType": "PointWiseV2",
  "Inputs": [
  {
    "Name": "/features.11/channel_mixer/m/m.0/Conv_output_0",
    "Location": "Device",
    "Dimensions": [1,320,28,28],
    "Format/Datatype": "Channel major FP32 format where channel % 4 == 0"
  }],
  "Outputs": [
  {
    "Name": "/features.11/channel_mixer/m/m.1/Mul_1_output_0",
    "Location": "Device",
    "Dimensions": [1,320,28,28],
    "Format/Datatype": "Channel major FP32 format where channel % 4 == 0"
  }],
  "ParameterType": "PointWise",
  "ParameterSubType": "PointWiseExpression",
  "NbInputArgs": 1,
  "InputArgs": ["arg0"],
  "NbOutputVars": 1,
  "OutputVars": ["var4"],
  "NbParams": 0,
  "Params": [],
  "NbLiterals": 5,
  "Literals": ["1.414214e+00f", "0.000000e+00f", "1.000000e+00f", "0.000000e+00f", "5.000000e-01f"],
  "NbOperations": 5,
  "Operations": ["auto const var0 = pwgen::iDiv(arg0, literal0);", "auto const var1 = pwgen::iErf(var0);", "auto const var2 = pwgen::iPlus(var1, literal2);", "auto const var3 = pwgen::iMul(arg0, var2);", "auto const var4 = pwgen::iMul(var3, literal4);"],
  "TacticValue": "0x0000000000000016",
  "StreamId": 0,
  "Metadata": "[ONNX Layer: /features.11/channel_mixer/m/m.1/Div]\u001e[ONNX Layer: /features.11/channel_mixer/m/m.1/Erf]\u001e[ONNX Layer: /features.11/channel_mixer/m/m.1/Add]\u001e[ONNX Layer: /features.11/channel_mixer/m/m.1/Mul]\u001e[ONNX Layer: /features.11/channel_mixer/m/m.1/Mul_1]"
},{
  "Name": "/features.11/channel_mixer/m/m.2/Conv + /features.11/channel_mixer/Add",
  "LayerType": "CaskGemmConvolution",
  "Inputs": [
  {
    "Name": "/features.11/channel_mixer/m/m.1/Mul_1_output_0",
    "Location": "Device",
    "Dimensions": [1,320,28,28],
    "Format/Datatype": "Channel major FP32 format where channel % 4 == 0"
  },
  {
    "Name": "/features.11/token_mixer/token_mixer.1/Mul_output_0",
    "Location": "Device",
    "Dimensions": [1,160,28,28],
    "Format/Datatype": "Channel major FP32 format where channel % 4 == 0"
  }],
  "Outputs": [
  {
    "Name": "/features.11/channel_mixer/Add_output_0",
    "Location": "Device",
    "Dimensions": [1,160,28,28],
    "Format/Datatype": "Channel major FP32 format where channel % 4 == 0"
  }],
  "ParameterType": "Convolution",
  "Kernel": [1,1],
  "PaddingMode": "kEXPLICIT_ROUND_DOWN",
  "PrePadding": [0,0],
  "PostPadding": [0,0],
  "Stride": [1,1],
  "Dilation": [1,1],
  "OutMaps": 160,
  "Groups": 1,
  "Weights": {"Type": "Float", "Count": 51200},
  "Bias": {"Type": "Float", "Count": 160},
  "HasSparseWeights": 0,
  "HasDynamicFilter": 0,
  "HasDynamicBias": 0,
  "HasResidual": 1,
  "ConvXAsActInputIdx": -1,
  "BiasAsActInputIdx": -1,
  "ResAsActInputIdx": -1,
  "Activation": "NONE",
  "TacticName": "sm86_xmma_gemm_f32f32_tf32f32_f32_tn_n_tilesize64x64x64_stage3_warpsize2x2x1_tensor16x8x8",
  "TacticValue": "0x0000000000020338",
  "StreamId": 0,
  "Metadata": "[ONNX Layer: /features.11/channel_mixer/m/m.2/Conv]\u001e[ONNX Layer: /features.11/channel_mixer/Add]"
},{
  "Name": "/features.12/token_mixer/token_mixer.0/Conv",
  "LayerType": "CaskConvolution",
  "Inputs": [
  {
    "Name": "/features.11/channel_mixer/Add_output_0",
    "Location": "Device",
    "Dimensions": [1,160,28,28],
    "Format/Datatype": "Channel major FP32 format where channel % 4 == 0"
  }],
  "Outputs": [
  {
    "Name": "/features.12/token_mixer/token_mixer.0/Conv_output_0",
    "Location": "Device",
    "Dimensions": [1,160,28,28],
    "Format/Datatype": "Channel major FP32 format where channel % 4 == 0"
  }],
  "ParameterType": "Convolution",
  "Kernel": [3,3],
  "PaddingMode": "kEXPLICIT_ROUND_DOWN",
  "PrePadding": [1,1],
  "PostPadding": [1,1],
  "Stride": [1,1],
  "Dilation": [1,1],
  "OutMaps": 160,
  "Groups": 160,
  "Weights": {"Type": "Float", "Count": 1440},
  "Bias": {"Type": "Float", "Count": 160},
  "HasSparseWeights": 0,
  "HasDynamicFilter": 0,
  "HasDynamicBias": 0,
  "HasResidual": 0,
  "ConvXAsActInputIdx": -1,
  "BiasAsActInputIdx": -1,
  "ResAsActInputIdx": -1,
  "Activation": "NONE",
  "HasBias": 1,
  "HasReLU": 0,
  "TacticName": "sm50_xmma_convolution_trt_depthwiseFP32NHWC4_fp32nhwcx4_fp32nhwcx4_fp32kcrs",
  "TacticValue": "0x2cac8ad6921b6398",
  "StreamId": 0,
  "Metadata": "[ONNX Layer: /features.12/token_mixer/token_mixer.0/Conv]"
},{
  "Name": "/features.12/channel_mixer/m/m.0/Conv",
  "LayerType": "CaskGemmConvolution",
  "Inputs": [
  {
    "Name": "/features.12/token_mixer/token_mixer.0/Conv_output_0",
    "Location": "Device",
    "Dimensions": [1,160,28,28],
    "Format/Datatype": "Channel major FP32 format where channel % 4 == 0"
  }],
  "Outputs": [
  {
    "Name": "/features.12/channel_mixer/m/m.0/Conv_output_0",
    "Location": "Device",
    "Dimensions": [1,320,28,28],
    "Format/Datatype": "Channel major FP32 format where channel % 4 == 0"
  }],
  "ParameterType": "Convolution",
  "Kernel": [1,1],
  "PaddingMode": "kEXPLICIT_ROUND_DOWN",
  "PrePadding": [0,0],
  "PostPadding": [0,0],
  "Stride": [1,1],
  "Dilation": [1,1],
  "OutMaps": 320,
  "Groups": 1,
  "Weights": {"Type": "Float", "Count": 51200},
  "Bias": {"Type": "Float", "Count": 320},
  "HasSparseWeights": 0,
  "HasDynamicFilter": 0,
  "HasDynamicBias": 0,
  "HasResidual": 0,
  "ConvXAsActInputIdx": -1,
  "BiasAsActInputIdx": -1,
  "ResAsActInputIdx": -1,
  "Activation": "NONE",
  "TacticName": "sm80_xmma_gemm_f32f32_tf32f32_f32_nn_n_tilesize64x128x16_stage4_warpsize2x2x1_tensor16x8x8",
  "TacticValue": "0x00000000000205cd",
  "StreamId": 0,
  "Metadata": "[ONNX Layer: /features.12/channel_mixer/m/m.0/Conv]"
},{
  "Name": "PWN(PWN(PWN(PWN(PWN(/features.12/channel_mixer/m/m.1/Constant_output_0 + (Unnamed Layer* 212) [Shuffle], /features.12/channel_mixer/m/m.1/Div), PWN(/features.12/channel_mixer/m/m.1/Erf)), /features.12/channel_mixer/m/m.1/Constant_1_output_0 + (Unnamed Layer* 216) [Shuffle] + /features.12/channel_mixer/m/m.1/Add), /features.12/channel_mixer/m/m.1/Mul), /features.12/channel_mixer/m/m.1/Constant_2_output_0 + (Unnamed Layer* 220) [Shuffle] + /features.12/channel_mixer/m/m.1/Mul_1)",
  "LayerType": "PointWiseV2",
  "Inputs": [
  {
    "Name": "/features.12/channel_mixer/m/m.0/Conv_output_0",
    "Location": "Device",
    "Dimensions": [1,320,28,28],
    "Format/Datatype": "Channel major FP32 format where channel % 4 == 0"
  }],
  "Outputs": [
  {
    "Name": "/features.12/channel_mixer/m/m.1/Mul_1_output_0",
    "Location": "Device",
    "Dimensions": [1,320,28,28],
    "Format/Datatype": "Channel major FP32 format where channel % 4 == 0"
  }],
  "ParameterType": "PointWise",
  "ParameterSubType": "PointWiseExpression",
  "NbInputArgs": 1,
  "InputArgs": ["arg0"],
  "NbOutputVars": 1,
  "OutputVars": ["var4"],
  "NbParams": 0,
  "Params": [],
  "NbLiterals": 5,
  "Literals": ["1.414214e+00f", "0.000000e+00f", "1.000000e+00f", "0.000000e+00f", "5.000000e-01f"],
  "NbOperations": 5,
  "Operations": ["auto const var0 = pwgen::iDiv(arg0, literal0);", "auto const var1 = pwgen::iErf(var0);", "auto const var2 = pwgen::iPlus(var1, literal2);", "auto const var3 = pwgen::iMul(arg0, var2);", "auto const var4 = pwgen::iMul(var3, literal4);"],
  "TacticValue": "0x0000000000000016",
  "StreamId": 0,
  "Metadata": "[ONNX Layer: /features.12/channel_mixer/m/m.1/Div]\u001e[ONNX Layer: /features.12/channel_mixer/m/m.1/Erf]\u001e[ONNX Layer: /features.12/channel_mixer/m/m.1/Add]\u001e[ONNX Layer: /features.12/channel_mixer/m/m.1/Mul]\u001e[ONNX Layer: /features.12/channel_mixer/m/m.1/Mul_1]"
},{
  "Name": "/features.12/channel_mixer/m/m.2/Conv + /features.12/channel_mixer/Add",
  "LayerType": "CaskGemmConvolution",
  "Inputs": [
  {
    "Name": "/features.12/channel_mixer/m/m.1/Mul_1_output_0",
    "Location": "Device",
    "Dimensions": [1,320,28,28],
    "Format/Datatype": "Channel major FP32 format where channel % 4 == 0"
  },
  {
    "Name": "/features.12/token_mixer/token_mixer.0/Conv_output_0",
    "Location": "Device",
    "Dimensions": [1,160,28,28],
    "Format/Datatype": "Channel major FP32 format where channel % 4 == 0"
  }],
  "Outputs": [
  {
    "Name": "/features.12/channel_mixer/Add_output_0",
    "Location": "Device",
    "Dimensions": [1,160,28,28],
    "Format/Datatype": "Channel major FP32 format where channel % 4 == 0"
  }],
  "ParameterType": "Convolution",
  "Kernel": [1,1],
  "PaddingMode": "kEXPLICIT_ROUND_DOWN",
  "PrePadding": [0,0],
  "PostPadding": [0,0],
  "Stride": [1,1],
  "Dilation": [1,1],
  "OutMaps": 160,
  "Groups": 1,
  "Weights": {"Type": "Float", "Count": 51200},
  "Bias": {"Type": "Float", "Count": 160},
  "HasSparseWeights": 0,
  "HasDynamicFilter": 0,
  "HasDynamicBias": 0,
  "HasResidual": 1,
  "ConvXAsActInputIdx": -1,
  "BiasAsActInputIdx": -1,
  "ResAsActInputIdx": -1,
  "Activation": "NONE",
  "TacticName": "sm86_xmma_gemm_f32f32_tf32f32_f32_tn_n_tilesize64x64x64_stage3_warpsize2x2x1_tensor16x8x8",
  "TacticValue": "0x0000000000020338",
  "StreamId": 0,
  "Metadata": "[ONNX Layer: /features.12/channel_mixer/m/m.2/Conv]\u001e[ONNX Layer: /features.12/channel_mixer/Add]"
},{
  "Name": "/features.13/token_mixer/token_mixer.0/Conv",
  "LayerType": "CaskConvolution",
  "Inputs": [
  {
    "Name": "/features.12/channel_mixer/Add_output_0",
    "Location": "Device",
    "Dimensions": [1,160,28,28],
    "Format/Datatype": "Channel major FP32 format where channel % 4 == 0"
  }],
  "Outputs": [
  {
    "Name": "/features.13/token_mixer/token_mixer.0/Conv_output_0",
    "Location": "Device",
    "Dimensions": [1,160,28,28],
    "Format/Datatype": "Channel major FP32 format where channel % 4 == 0"
  }],
  "ParameterType": "Convolution",
  "Kernel": [3,3],
  "PaddingMode": "kEXPLICIT_ROUND_DOWN",
  "PrePadding": [1,1],
  "PostPadding": [1,1],
  "Stride": [1,1],
  "Dilation": [1,1],
  "OutMaps": 160,
  "Groups": 160,
  "Weights": {"Type": "Float", "Count": 1440},
  "Bias": {"Type": "Float", "Count": 160},
  "HasSparseWeights": 0,
  "HasDynamicFilter": 0,
  "HasDynamicBias": 0,
  "HasResidual": 0,
  "ConvXAsActInputIdx": -1,
  "BiasAsActInputIdx": -1,
  "ResAsActInputIdx": -1,
  "Activation": "NONE",
  "HasBias": 1,
  "HasReLU": 0,
  "TacticName": "sm50_xmma_convolution_trt_depthwiseFP32NHWC4_fp32nhwcx4_fp32nhwcx4_fp32kcrs",
  "TacticValue": "0x2cac8ad6921b6398",
  "StreamId": 0,
  "Metadata": "[ONNX Layer: /features.13/token_mixer/token_mixer.0/Conv]"
},{
  "Name": "/features.13/token_mixer/token_mixer.1/ReduceMean",
  "LayerType": "CaskPooling",
  "Inputs": [
  {
    "Name": "/features.13/token_mixer/token_mixer.0/Conv_output_0",
    "Location": "Device",
    "Dimensions": [1,160,28,28],
    "Format/Datatype": "Channel major FP32 format where channel % 4 == 0"
  }],
  "Outputs": [
  {
    "Name": "/features.13/token_mixer/token_mixer.1/ReduceMean_output_0",
    "Location": "Device",
    "Dimensions": [1,160,1,1],
    "Format/Datatype": "Channel major FP32 format where channel % 4 == 0"
  }],
  "ParameterType": "Pooling",
  "PoolingType": "AVERAGE",
  "WindowSize": [28,28],
  "PaddingMode": "kEXPLICIT_ROUND_DOWN",
  "PrePadding": [0,0],
  "PostPadding": [0,0],
  "Stride": [1,1],
  "BlendFactor": 0,
  "AverageCountExcludesPadding": 1,
  "TacticName": "sm50_xmma_pooling_fw_4d_FP32FP32NHWC_Average_FastDiv_CAlign4",
  "TacticValue": "0xfab3e2ee1c085a9a",
  "StreamId": 0,
  "Metadata": "[ONNX Layer: /features.13/token_mixer/token_mixer.1/ReduceMean]"
},{
  "Name": "Reformatting CopyNode for Input Tensor 0 to /features.13/token_mixer/token_mixer.1/fc1/Conv + /features.13/token_mixer/token_mixer.1/act/Relu",
  "LayerType": "NoOp",
  "Inputs": [
  {
    "Name": "/features.13/token_mixer/token_mixer.1/ReduceMean_output_0",
    "Location": "Device",
    "Dimensions": [1,160,1,1],
    "Format/Datatype": "Channel major FP32 format where channel % 4 == 0"
  }],
  "Outputs": [
  {
    "Name": "Reformatted Input Tensor 0 to /features.13/token_mixer/token_mixer.1/fc1/Conv + /features.13/token_mixer/token_mixer.1/act/Relu",
    "Location": "Device",
    "Dimensions": [1,160,1,1],
    "Format/Datatype": "Row major linear FP32"
  }],
  "TacticValue": "0x0000000000000000",
  "StreamId": 0,
  "Metadata": ""
},{
  "Name": "/features.13/token_mixer/token_mixer.1/fc1/Conv + /features.13/token_mixer/token_mixer.1/act/Relu",
  "LayerType": "CaskGemmConvolution",
  "Inputs": [
  {
    "Name": "Reformatted Input Tensor 0 to /features.13/token_mixer/token_mixer.1/fc1/Conv + /features.13/token_mixer/token_mixer.1/act/Relu",
    "Location": "Device",
    "Dimensions": [1,160,1,1],
    "Format/Datatype": "Row major linear FP32"
  }],
  "Outputs": [
  {
    "Name": "/features.13/token_mixer/token_mixer.1/act/Relu_output_0",
    "Location": "Device",
    "Dimensions": [1,40,1,1],
    "Format/Datatype": "Row major linear FP32"
  }],
  "ParameterType": "Convolution",
  "Kernel": [1,1],
  "PaddingMode": "kEXPLICIT_ROUND_DOWN",
  "PrePadding": [0,0],
  "PostPadding": [0,0],
  "Stride": [1,1],
  "Dilation": [1,1],
  "OutMaps": 40,
  "Groups": 1,
  "Weights": {"Type": "Float", "Count": 6400},
  "Bias": {"Type": "Float", "Count": 40},
  "HasSparseWeights": 0,
  "HasDynamicFilter": 0,
  "HasDynamicBias": 0,
  "HasResidual": 0,
  "ConvXAsActInputIdx": -1,
  "BiasAsActInputIdx": -1,
  "ResAsActInputIdx": -1,
  "Activation": "RELU",
  "TacticName": "sm50_xmma_cublas_gemvx_f32f32_f32_f32_tn_n_int32_unit_n_launch_param8x32x32_strided_unit_stride",
  "TacticValue": "0x00000000000204d1",
  "StreamId": 0,
  "Metadata": "[ONNX Layer: /features.13/token_mixer/token_mixer.1/fc1/Conv]\u001e[ONNX Layer: /features.13/token_mixer/token_mixer.1/act/Relu]"
},{
  "Name": "/features.13/token_mixer/token_mixer.1/fc2/Conv",
  "LayerType": "CaskGemmConvolution",
  "Inputs": [
  {
    "Name": "/features.13/token_mixer/token_mixer.1/act/Relu_output_0",
    "Location": "Device",
    "Dimensions": [1,40,1,1],
    "Format/Datatype": "Row major linear FP32"
  }],
  "Outputs": [
  {
    "Name": "/features.13/token_mixer/token_mixer.1/fc2/Conv_output_0",
    "Location": "Device",
    "Dimensions": [1,160,1,1],
    "Format/Datatype": "Row major linear FP32"
  }],
  "ParameterType": "Convolution",
  "Kernel": [1,1],
  "PaddingMode": "kEXPLICIT_ROUND_DOWN",
  "PrePadding": [0,0],
  "PostPadding": [0,0],
  "Stride": [1,1],
  "Dilation": [1,1],
  "OutMaps": 160,
  "Groups": 1,
  "Weights": {"Type": "Float", "Count": 6400},
  "Bias": {"Type": "Float", "Count": 160},
  "HasSparseWeights": 0,
  "HasDynamicFilter": 0,
  "HasDynamicBias": 0,
  "HasResidual": 0,
  "ConvXAsActInputIdx": -1,
  "BiasAsActInputIdx": -1,
  "ResAsActInputIdx": -1,
  "Activation": "NONE",
  "TacticName": "sm50_xmma_cublas_gemvx_f32f32_f32_f32_nn_n_int32_unit_n_launch_param64x2x1_strided_unit_stride",
  "TacticValue": "0x00000000000206fc",
  "StreamId": 0,
  "Metadata": "[ONNX Layer: /features.13/token_mixer/token_mixer.1/fc2/Conv]"
},{
  "Name": "Reformatting CopyNode for Input Tensor 0 to PWN(PWN(/features.13/token_mixer/token_mixer.1/gate/Sigmoid), /features.13/token_mixer/token_mixer.1/Mul)",
  "LayerType": "NoOp",
  "Inputs": [
  {
    "Name": "/features.13/token_mixer/token_mixer.1/fc2/Conv_output_0",
    "Location": "Device",
    "Dimensions": [1,160,1,1],
    "Format/Datatype": "Row major linear FP32"
  }],
  "Outputs": [
  {
    "Name": "Reformatted Input Tensor 0 to PWN(PWN(/features.13/token_mixer/token_mixer.1/gate/Sigmoid), /features.13/token_mixer/token_mixer.1/Mul)",
    "Location": "Device",
    "Dimensions": [1,160,1,1],
    "Format/Datatype": "Channel major FP32 format where channel % 4 == 0"
  }],
  "TacticValue": "0x0000000000000000",
  "StreamId": 0,
  "Metadata": ""
},{
  "Name": "PWN(PWN(/features.13/token_mixer/token_mixer.1/gate/Sigmoid), /features.13/token_mixer/token_mixer.1/Mul)",
  "LayerType": "PointWiseV2",
  "Inputs": [
  {
    "Name": "Reformatted Input Tensor 0 to PWN(PWN(/features.13/token_mixer/token_mixer.1/gate/Sigmoid), /features.13/token_mixer/token_mixer.1/Mul)",
    "Location": "Device",
    "Dimensions": [1,160,1,1],
    "Format/Datatype": "Channel major FP32 format where channel % 4 == 0"
  },
  {
    "Name": "/features.13/token_mixer/token_mixer.0/Conv_output_0",
    "Location": "Device",
    "Dimensions": [1,160,28,28],
    "Format/Datatype": "Channel major FP32 format where channel % 4 == 0"
  }],
  "Outputs": [
  {
    "Name": "/features.13/token_mixer/token_mixer.1/Mul_output_0",
    "Location": "Device",
    "Dimensions": [1,160,28,28],
    "Format/Datatype": "Channel major FP32 format where channel % 4 == 0"
  }],
  "ParameterType": "PointWise",
  "ParameterSubType": "PointWiseExpression",
  "NbInputArgs": 2,
  "InputArgs": ["arg0", "arg1"],
  "NbOutputVars": 1,
  "OutputVars": ["var4"],
  "NbParams": 0,
  "Params": [],
  "NbLiterals": 5,
  "Literals": ["0.000000e+00f", "1.000000e+00f", "0.000000e+00f", "0.000000e+00f", "1.000000e+00f"],
  "NbOperations": 5,
  "Operations": ["auto const var0 = pwgen::iNeg(arg0);", "auto const var1 = pwgen::iExp(var0);", "auto const var2 = pwgen::iPlus(literal4, var1);", "auto const var3 = pwgen::iRcp(var2);", "auto const var4 = pwgen::iMul(arg1, var3);"],
  "TacticValue": "0x0000000000000000",
  "StreamId": 0,
  "Metadata": "[ONNX Layer: /features.13/token_mixer/token_mixer.1/gate/Sigmoid]\u001e[ONNX Layer: /features.13/token_mixer/token_mixer.1/Mul]"
},{
  "Name": "/features.13/channel_mixer/m/m.0/Conv",
  "LayerType": "CaskGemmConvolution",
  "Inputs": [
  {
    "Name": "/features.13/token_mixer/token_mixer.1/Mul_output_0",
    "Location": "Device",
    "Dimensions": [1,160,28,28],
    "Format/Datatype": "Channel major FP32 format where channel % 4 == 0"
  }],
  "Outputs": [
  {
    "Name": "/features.13/channel_mixer/m/m.0/Conv_output_0",
    "Location": "Device",
    "Dimensions": [1,320,28,28],
    "Format/Datatype": "Channel major FP32 format where channel % 4 == 0"
  }],
  "ParameterType": "Convolution",
  "Kernel": [1,1],
  "PaddingMode": "kEXPLICIT_ROUND_DOWN",
  "PrePadding": [0,0],
  "PostPadding": [0,0],
  "Stride": [1,1],
  "Dilation": [1,1],
  "OutMaps": 320,
  "Groups": 1,
  "Weights": {"Type": "Float", "Count": 51200},
  "Bias": {"Type": "Float", "Count": 320},
  "HasSparseWeights": 0,
  "HasDynamicFilter": 0,
  "HasDynamicBias": 0,
  "HasResidual": 0,
  "ConvXAsActInputIdx": -1,
  "BiasAsActInputIdx": -1,
  "ResAsActInputIdx": -1,
  "Activation": "NONE",
  "TacticName": "sm80_xmma_gemm_f32f32_tf32f32_f32_nn_n_tilesize64x128x16_stage4_warpsize2x2x1_tensor16x8x8",
  "TacticValue": "0x00000000000205cd",
  "StreamId": 0,
  "Metadata": "[ONNX Layer: /features.13/channel_mixer/m/m.0/Conv]"
},{
  "Name": "PWN(PWN(PWN(PWN(PWN(/features.13/channel_mixer/m/m.1/Constant_output_0 + (Unnamed Layer* 233) [Shuffle], /features.13/channel_mixer/m/m.1/Div), PWN(/features.13/channel_mixer/m/m.1/Erf)), /features.13/channel_mixer/m/m.1/Constant_1_output_0 + (Unnamed Layer* 237) [Shuffle] + /features.13/channel_mixer/m/m.1/Add), /features.13/channel_mixer/m/m.1/Mul), /features.13/channel_mixer/m/m.1/Constant_2_output_0 + (Unnamed Layer* 241) [Shuffle] + /features.13/channel_mixer/m/m.1/Mul_1)",
  "LayerType": "PointWiseV2",
  "Inputs": [
  {
    "Name": "/features.13/channel_mixer/m/m.0/Conv_output_0",
    "Location": "Device",
    "Dimensions": [1,320,28,28],
    "Format/Datatype": "Channel major FP32 format where channel % 4 == 0"
  }],
  "Outputs": [
  {
    "Name": "/features.13/channel_mixer/m/m.1/Mul_1_output_0",
    "Location": "Device",
    "Dimensions": [1,320,28,28],
    "Format/Datatype": "Channel major FP32 format where channel % 4 == 0"
  }],
  "ParameterType": "PointWise",
  "ParameterSubType": "PointWiseExpression",
  "NbInputArgs": 1,
  "InputArgs": ["arg0"],
  "NbOutputVars": 1,
  "OutputVars": ["var4"],
  "NbParams": 0,
  "Params": [],
  "NbLiterals": 5,
  "Literals": ["1.414214e+00f", "0.000000e+00f", "1.000000e+00f", "0.000000e+00f", "5.000000e-01f"],
  "NbOperations": 5,
  "Operations": ["auto const var0 = pwgen::iDiv(arg0, literal0);", "auto const var1 = pwgen::iErf(var0);", "auto const var2 = pwgen::iPlus(var1, literal2);", "auto const var3 = pwgen::iMul(arg0, var2);", "auto const var4 = pwgen::iMul(var3, literal4);"],
  "TacticValue": "0x0000000000000016",
  "StreamId": 0,
  "Metadata": "[ONNX Layer: /features.13/channel_mixer/m/m.1/Div]\u001e[ONNX Layer: /features.13/channel_mixer/m/m.1/Erf]\u001e[ONNX Layer: /features.13/channel_mixer/m/m.1/Add]\u001e[ONNX Layer: /features.13/channel_mixer/m/m.1/Mul]\u001e[ONNX Layer: /features.13/channel_mixer/m/m.1/Mul_1]"
},{
  "Name": "/features.13/channel_mixer/m/m.2/Conv + /features.13/channel_mixer/Add",
  "LayerType": "CaskGemmConvolution",
  "Inputs": [
  {
    "Name": "/features.13/channel_mixer/m/m.1/Mul_1_output_0",
    "Location": "Device",
    "Dimensions": [1,320,28,28],
    "Format/Datatype": "Channel major FP32 format where channel % 4 == 0"
  },
  {
    "Name": "/features.13/token_mixer/token_mixer.1/Mul_output_0",
    "Location": "Device",
    "Dimensions": [1,160,28,28],
    "Format/Datatype": "Channel major FP32 format where channel % 4 == 0"
  }],
  "Outputs": [
  {
    "Name": "/features.13/channel_mixer/Add_output_0",
    "Location": "Device",
    "Dimensions": [1,160,28,28],
    "Format/Datatype": "Channel major FP32 format where channel % 4 == 0"
  }],
  "ParameterType": "Convolution",
  "Kernel": [1,1],
  "PaddingMode": "kEXPLICIT_ROUND_DOWN",
  "PrePadding": [0,0],
  "PostPadding": [0,0],
  "Stride": [1,1],
  "Dilation": [1,1],
  "OutMaps": 160,
  "Groups": 1,
  "Weights": {"Type": "Float", "Count": 51200},
  "Bias": {"Type": "Float", "Count": 160},
  "HasSparseWeights": 0,
  "HasDynamicFilter": 0,
  "HasDynamicBias": 0,
  "HasResidual": 1,
  "ConvXAsActInputIdx": -1,
  "BiasAsActInputIdx": -1,
  "ResAsActInputIdx": -1,
  "Activation": "NONE",
  "TacticName": "sm86_xmma_gemm_f32f32_tf32f32_f32_tn_n_tilesize64x64x64_stage3_warpsize2x2x1_tensor16x8x8",
  "TacticValue": "0x0000000000020338",
  "StreamId": 0,
  "Metadata": "[ONNX Layer: /features.13/channel_mixer/m/m.2/Conv]\u001e[ONNX Layer: /features.13/channel_mixer/Add]"
},{
  "Name": "/features.14/token_mixer/token_mixer.0/Conv",
  "LayerType": "CaskConvolution",
  "Inputs": [
  {
    "Name": "/features.13/channel_mixer/Add_output_0",
    "Location": "Device",
    "Dimensions": [1,160,28,28],
    "Format/Datatype": "Channel major FP32 format where channel % 4 == 0"
  }],
  "Outputs": [
  {
    "Name": "/features.14/token_mixer/token_mixer.0/Conv_output_0",
    "Location": "Device",
    "Dimensions": [1,160,28,28],
    "Format/Datatype": "Channel major FP32 format where channel % 4 == 0"
  }],
  "ParameterType": "Convolution",
  "Kernel": [3,3],
  "PaddingMode": "kEXPLICIT_ROUND_DOWN",
  "PrePadding": [1,1],
  "PostPadding": [1,1],
  "Stride": [1,1],
  "Dilation": [1,1],
  "OutMaps": 160,
  "Groups": 160,
  "Weights": {"Type": "Float", "Count": 1440},
  "Bias": {"Type": "Float", "Count": 160},
  "HasSparseWeights": 0,
  "HasDynamicFilter": 0,
  "HasDynamicBias": 0,
  "HasResidual": 0,
  "ConvXAsActInputIdx": -1,
  "BiasAsActInputIdx": -1,
  "ResAsActInputIdx": -1,
  "Activation": "NONE",
  "HasBias": 1,
  "HasReLU": 0,
  "TacticName": "sm50_xmma_convolution_trt_depthwiseFP32NHWC4_fp32nhwcx4_fp32nhwcx4_fp32kcrs",
  "TacticValue": "0x2cac8ad6921b6398",
  "StreamId": 0,
  "Metadata": "[ONNX Layer: /features.14/token_mixer/token_mixer.0/Conv]"
},{
  "Name": "/features.14/channel_mixer/m/m.0/Conv",
  "LayerType": "CaskGemmConvolution",
  "Inputs": [
  {
    "Name": "/features.14/token_mixer/token_mixer.0/Conv_output_0",
    "Location": "Device",
    "Dimensions": [1,160,28,28],
    "Format/Datatype": "Channel major FP32 format where channel % 4 == 0"
  }],
  "Outputs": [
  {
    "Name": "/features.14/channel_mixer/m/m.0/Conv_output_0",
    "Location": "Device",
    "Dimensions": [1,320,28,28],
    "Format/Datatype": "Channel major FP32 format where channel % 4 == 0"
  }],
  "ParameterType": "Convolution",
  "Kernel": [1,1],
  "PaddingMode": "kEXPLICIT_ROUND_DOWN",
  "PrePadding": [0,0],
  "PostPadding": [0,0],
  "Stride": [1,1],
  "Dilation": [1,1],
  "OutMaps": 320,
  "Groups": 1,
  "Weights": {"Type": "Float", "Count": 51200},
  "Bias": {"Type": "Float", "Count": 320},
  "HasSparseWeights": 0,
  "HasDynamicFilter": 0,
  "HasDynamicBias": 0,
  "HasResidual": 0,
  "ConvXAsActInputIdx": -1,
  "BiasAsActInputIdx": -1,
  "ResAsActInputIdx": -1,
  "Activation": "NONE",
  "TacticName": "sm80_xmma_gemm_f32f32_tf32f32_f32_nn_n_tilesize64x128x16_stage4_warpsize2x2x1_tensor16x8x8",
  "TacticValue": "0x00000000000205cd",
  "StreamId": 0,
  "Metadata": "[ONNX Layer: /features.14/channel_mixer/m/m.0/Conv]"
},{
  "Name": "PWN(PWN(PWN(PWN(PWN(/features.14/channel_mixer/m/m.1/Constant_output_0 + (Unnamed Layer* 248) [Shuffle], /features.14/channel_mixer/m/m.1/Div), PWN(/features.14/channel_mixer/m/m.1/Erf)), /features.14/channel_mixer/m/m.1/Constant_1_output_0 + (Unnamed Layer* 252) [Shuffle] + /features.14/channel_mixer/m/m.1/Add), /features.14/channel_mixer/m/m.1/Mul), /features.14/channel_mixer/m/m.1/Constant_2_output_0 + (Unnamed Layer* 256) [Shuffle] + /features.14/channel_mixer/m/m.1/Mul_1)",
  "LayerType": "PointWiseV2",
  "Inputs": [
  {
    "Name": "/features.14/channel_mixer/m/m.0/Conv_output_0",
    "Location": "Device",
    "Dimensions": [1,320,28,28],
    "Format/Datatype": "Channel major FP32 format where channel % 4 == 0"
  }],
  "Outputs": [
  {
    "Name": "/features.14/channel_mixer/m/m.1/Mul_1_output_0",
    "Location": "Device",
    "Dimensions": [1,320,28,28],
    "Format/Datatype": "Channel major FP32 format where channel % 4 == 0"
  }],
  "ParameterType": "PointWise",
  "ParameterSubType": "PointWiseExpression",
  "NbInputArgs": 1,
  "InputArgs": ["arg0"],
  "NbOutputVars": 1,
  "OutputVars": ["var4"],
  "NbParams": 0,
  "Params": [],
  "NbLiterals": 5,
  "Literals": ["1.414214e+00f", "0.000000e+00f", "1.000000e+00f", "0.000000e+00f", "5.000000e-01f"],
  "NbOperations": 5,
  "Operations": ["auto const var0 = pwgen::iDiv(arg0, literal0);", "auto const var1 = pwgen::iErf(var0);", "auto const var2 = pwgen::iPlus(var1, literal2);", "auto const var3 = pwgen::iMul(arg0, var2);", "auto const var4 = pwgen::iMul(var3, literal4);"],
  "TacticValue": "0x0000000000000016",
  "StreamId": 0,
  "Metadata": "[ONNX Layer: /features.14/channel_mixer/m/m.1/Div]\u001e[ONNX Layer: /features.14/channel_mixer/m/m.1/Erf]\u001e[ONNX Layer: /features.14/channel_mixer/m/m.1/Add]\u001e[ONNX Layer: /features.14/channel_mixer/m/m.1/Mul]\u001e[ONNX Layer: /features.14/channel_mixer/m/m.1/Mul_1]"
},{
  "Name": "/features.14/channel_mixer/m/m.2/Conv + /features.14/channel_mixer/Add",
  "LayerType": "CaskGemmConvolution",
  "Inputs": [
  {
    "Name": "/features.14/channel_mixer/m/m.1/Mul_1_output_0",
    "Location": "Device",
    "Dimensions": [1,320,28,28],
    "Format/Datatype": "Channel major FP32 format where channel % 4 == 0"
  },
  {
    "Name": "/features.14/token_mixer/token_mixer.0/Conv_output_0",
    "Location": "Device",
    "Dimensions": [1,160,28,28],
    "Format/Datatype": "Channel major FP32 format where channel % 4 == 0"
  }],
  "Outputs": [
  {
    "Name": "/features.14/channel_mixer/Add_output_0",
    "Location": "Device",
    "Dimensions": [1,160,28,28],
    "Format/Datatype": "Channel major FP32 format where channel % 4 == 0"
  }],
  "ParameterType": "Convolution",
  "Kernel": [1,1],
  "PaddingMode": "kEXPLICIT_ROUND_DOWN",
  "PrePadding": [0,0],
  "PostPadding": [0,0],
  "Stride": [1,1],
  "Dilation": [1,1],
  "OutMaps": 160,
  "Groups": 1,
  "Weights": {"Type": "Float", "Count": 51200},
  "Bias": {"Type": "Float", "Count": 160},
  "HasSparseWeights": 0,
  "HasDynamicFilter": 0,
  "HasDynamicBias": 0,
  "HasResidual": 1,
  "ConvXAsActInputIdx": -1,
  "BiasAsActInputIdx": -1,
  "ResAsActInputIdx": -1,
  "Activation": "NONE",
  "TacticName": "sm86_xmma_gemm_f32f32_tf32f32_f32_tn_n_tilesize64x64x64_stage3_warpsize2x2x1_tensor16x8x8",
  "TacticValue": "0x0000000000020338",
  "StreamId": 0,
  "Metadata": "[ONNX Layer: /features.14/channel_mixer/m/m.2/Conv]\u001e[ONNX Layer: /features.14/channel_mixer/Add]"
},{
  "Name": "/features.15/token_mixer/token_mixer.0/Conv",
  "LayerType": "CaskConvolution",
  "Inputs": [
  {
    "Name": "/features.14/channel_mixer/Add_output_0",
    "Location": "Device",
    "Dimensions": [1,160,28,28],
    "Format/Datatype": "Channel major FP32 format where channel % 4 == 0"
  }],
  "Outputs": [
  {
    "Name": "/features.15/token_mixer/token_mixer.0/Conv_output_0",
    "Location": "Device",
    "Dimensions": [1,160,28,28],
    "Format/Datatype": "Channel major FP32 format where channel % 4 == 0"
  }],
  "ParameterType": "Convolution",
  "Kernel": [3,3],
  "PaddingMode": "kEXPLICIT_ROUND_DOWN",
  "PrePadding": [1,1],
  "PostPadding": [1,1],
  "Stride": [1,1],
  "Dilation": [1,1],
  "OutMaps": 160,
  "Groups": 160,
  "Weights": {"Type": "Float", "Count": 1440},
  "Bias": {"Type": "Float", "Count": 160},
  "HasSparseWeights": 0,
  "HasDynamicFilter": 0,
  "HasDynamicBias": 0,
  "HasResidual": 0,
  "ConvXAsActInputIdx": -1,
  "BiasAsActInputIdx": -1,
  "ResAsActInputIdx": -1,
  "Activation": "NONE",
  "HasBias": 1,
  "HasReLU": 0,
  "TacticName": "sm50_xmma_convolution_trt_depthwiseFP32NHWC4_fp32nhwcx4_fp32nhwcx4_fp32kcrs",
  "TacticValue": "0x2cac8ad6921b6398",
  "StreamId": 0,
  "Metadata": "[ONNX Layer: /features.15/token_mixer/token_mixer.0/Conv]"
},{
  "Name": "/features.15/channel_mixer/m/m.0/Conv",
  "LayerType": "CaskGemmConvolution",
  "Inputs": [
  {
    "Name": "/features.15/token_mixer/token_mixer.0/Conv_output_0",
    "Location": "Device",
    "Dimensions": [1,160,28,28],
    "Format/Datatype": "Channel major FP32 format where channel % 4 == 0"
  }],
  "Outputs": [
  {
    "Name": "/features.15/channel_mixer/m/m.0/Conv_output_0",
    "Location": "Device",
    "Dimensions": [1,320,28,28],
    "Format/Datatype": "Channel major FP32 format where channel % 4 == 0"
  }],
  "ParameterType": "Convolution",
  "Kernel": [1,1],
  "PaddingMode": "kEXPLICIT_ROUND_DOWN",
  "PrePadding": [0,0],
  "PostPadding": [0,0],
  "Stride": [1,1],
  "Dilation": [1,1],
  "OutMaps": 320,
  "Groups": 1,
  "Weights": {"Type": "Float", "Count": 51200},
  "Bias": {"Type": "Float", "Count": 320},
  "HasSparseWeights": 0,
  "HasDynamicFilter": 0,
  "HasDynamicBias": 0,
  "HasResidual": 0,
  "ConvXAsActInputIdx": -1,
  "BiasAsActInputIdx": -1,
  "ResAsActInputIdx": -1,
  "Activation": "NONE",
  "TacticName": "sm80_xmma_gemm_f32f32_tf32f32_f32_nn_n_tilesize64x128x16_stage4_warpsize2x2x1_tensor16x8x8",
  "TacticValue": "0x00000000000205cd",
  "StreamId": 0,
  "Metadata": "[ONNX Layer: /features.15/channel_mixer/m/m.0/Conv]"
},{
  "Name": "PWN(PWN(PWN(PWN(PWN(/features.15/channel_mixer/m/m.1/Constant_output_0 + (Unnamed Layer* 263) [Shuffle], /features.15/channel_mixer/m/m.1/Div), PWN(/features.15/channel_mixer/m/m.1/Erf)), /features.15/channel_mixer/m/m.1/Constant_1_output_0 + (Unnamed Layer* 267) [Shuffle] + /features.15/channel_mixer/m/m.1/Add), /features.15/channel_mixer/m/m.1/Mul), /features.15/channel_mixer/m/m.1/Constant_2_output_0 + (Unnamed Layer* 271) [Shuffle] + /features.15/channel_mixer/m/m.1/Mul_1)",
  "LayerType": "PointWiseV2",
  "Inputs": [
  {
    "Name": "/features.15/channel_mixer/m/m.0/Conv_output_0",
    "Location": "Device",
    "Dimensions": [1,320,28,28],
    "Format/Datatype": "Channel major FP32 format where channel % 4 == 0"
  }],
  "Outputs": [
  {
    "Name": "/features.15/channel_mixer/m/m.1/Mul_1_output_0",
    "Location": "Device",
    "Dimensions": [1,320,28,28],
    "Format/Datatype": "Channel major FP32 format where channel % 4 == 0"
  }],
  "ParameterType": "PointWise",
  "ParameterSubType": "PointWiseExpression",
  "NbInputArgs": 1,
  "InputArgs": ["arg0"],
  "NbOutputVars": 1,
  "OutputVars": ["var4"],
  "NbParams": 0,
  "Params": [],
  "NbLiterals": 5,
  "Literals": ["1.414214e+00f", "0.000000e+00f", "1.000000e+00f", "0.000000e+00f", "5.000000e-01f"],
  "NbOperations": 5,
  "Operations": ["auto const var0 = pwgen::iDiv(arg0, literal0);", "auto const var1 = pwgen::iErf(var0);", "auto const var2 = pwgen::iPlus(var1, literal2);", "auto const var3 = pwgen::iMul(arg0, var2);", "auto const var4 = pwgen::iMul(var3, literal4);"],
  "TacticValue": "0x0000000000000016",
  "StreamId": 0,
  "Metadata": "[ONNX Layer: /features.15/channel_mixer/m/m.1/Div]\u001e[ONNX Layer: /features.15/channel_mixer/m/m.1/Erf]\u001e[ONNX Layer: /features.15/channel_mixer/m/m.1/Add]\u001e[ONNX Layer: /features.15/channel_mixer/m/m.1/Mul]\u001e[ONNX Layer: /features.15/channel_mixer/m/m.1/Mul_1]"
},{
  "Name": "/features.15/channel_mixer/m/m.2/Conv + /features.15/channel_mixer/Add",
  "LayerType": "CaskGemmConvolution",
  "Inputs": [
  {
    "Name": "/features.15/channel_mixer/m/m.1/Mul_1_output_0",
    "Location": "Device",
    "Dimensions": [1,320,28,28],
    "Format/Datatype": "Channel major FP32 format where channel % 4 == 0"
  },
  {
    "Name": "/features.15/token_mixer/token_mixer.0/Conv_output_0",
    "Location": "Device",
    "Dimensions": [1,160,28,28],
    "Format/Datatype": "Channel major FP32 format where channel % 4 == 0"
  }],
  "Outputs": [
  {
    "Name": "/features.15/channel_mixer/Add_output_0",
    "Location": "Device",
    "Dimensions": [1,160,28,28],
    "Format/Datatype": "Channel major FP32 format where channel % 4 == 0"
  }],
  "ParameterType": "Convolution",
  "Kernel": [1,1],
  "PaddingMode": "kEXPLICIT_ROUND_DOWN",
  "PrePadding": [0,0],
  "PostPadding": [0,0],
  "Stride": [1,1],
  "Dilation": [1,1],
  "OutMaps": 160,
  "Groups": 1,
  "Weights": {"Type": "Float", "Count": 51200},
  "Bias": {"Type": "Float", "Count": 160},
  "HasSparseWeights": 0,
  "HasDynamicFilter": 0,
  "HasDynamicBias": 0,
  "HasResidual": 1,
  "ConvXAsActInputIdx": -1,
  "BiasAsActInputIdx": -1,
  "ResAsActInputIdx": -1,
  "Activation": "NONE",
  "TacticName": "sm86_xmma_gemm_f32f32_tf32f32_f32_tn_n_tilesize64x64x64_stage3_warpsize2x2x1_tensor16x8x8",
  "TacticValue": "0x0000000000020338",
  "StreamId": 0,
  "Metadata": "[ONNX Layer: /features.15/channel_mixer/m/m.2/Conv]\u001e[ONNX Layer: /features.15/channel_mixer/Add]"
},{
  "Name": "/features.16/token_mixer/token_mixer.0/Conv",
  "LayerType": "CaskConvolution",
  "Inputs": [
  {
    "Name": "/features.15/channel_mixer/Add_output_0",
    "Location": "Device",
    "Dimensions": [1,160,28,28],
    "Format/Datatype": "Channel major FP32 format where channel % 4 == 0"
  }],
  "Outputs": [
  {
    "Name": "/features.16/token_mixer/token_mixer.0/Conv_output_0",
    "Location": "Device",
    "Dimensions": [1,160,14,14],
    "Format/Datatype": "Channel major FP32 format where channel % 4 == 0"
  }],
  "ParameterType": "Convolution",
  "Kernel": [3,3],
  "PaddingMode": "kEXPLICIT_ROUND_DOWN",
  "PrePadding": [1,1],
  "PostPadding": [1,1],
  "Stride": [2,2],
  "Dilation": [1,1],
  "OutMaps": 160,
  "Groups": 160,
  "Weights": {"Type": "Float", "Count": 1440},
  "Bias": {"Type": "Float", "Count": 160},
  "HasSparseWeights": 0,
  "HasDynamicFilter": 0,
  "HasDynamicBias": 0,
  "HasResidual": 0,
  "ConvXAsActInputIdx": -1,
  "BiasAsActInputIdx": -1,
  "ResAsActInputIdx": -1,
  "Activation": "NONE",
  "HasBias": 1,
  "HasReLU": 0,
  "TacticName": "sm50_xmma_convolution_trt_depthwiseFP32NHWC4_fp32nhwcx4_fp32nhwcx4_fp32kcrs",
  "TacticValue": "0x2cac8ad6921b6398",
  "StreamId": 0,
  "Metadata": "[ONNX Layer: /features.16/token_mixer/token_mixer.0/Conv]"
},{
  "Name": "/features.16/token_mixer/token_mixer.2/Conv",
  "LayerType": "CaskGemmConvolution",
  "Inputs": [
  {
    "Name": "/features.16/token_mixer/token_mixer.0/Conv_output_0",
    "Location": "Device",
    "Dimensions": [1,160,14,14],
    "Format/Datatype": "Channel major FP32 format where channel % 4 == 0"
  }],
  "Outputs": [
  {
    "Name": "/features.16/token_mixer/token_mixer.2/Conv_output_0",
    "Location": "Device",
    "Dimensions": [1,320,14,14],
    "Format/Datatype": "Channel major FP32 format where channel % 4 == 0"
  }],
  "ParameterType": "Convolution",
  "Kernel": [1,1],
  "PaddingMode": "kEXPLICIT_ROUND_DOWN",
  "PrePadding": [0,0],
  "PostPadding": [0,0],
  "Stride": [1,1],
  "Dilation": [1,1],
  "OutMaps": 320,
  "Groups": 1,
  "Weights": {"Type": "Float", "Count": 51200},
  "Bias": {"Type": "Float", "Count": 320},
  "HasSparseWeights": 0,
  "HasDynamicFilter": 0,
  "HasDynamicBias": 0,
  "HasResidual": 0,
  "ConvXAsActInputIdx": -1,
  "BiasAsActInputIdx": -1,
  "ResAsActInputIdx": -1,
  "Activation": "NONE",
  "TacticName": "sm80_xmma_gemm_f32f32_tf32f32_f32_nn_n_tilesize32x32x64_stage3_warpsize2x1x2_tensor16x8x8",
  "TacticValue": "0x0000000000020308",
  "StreamId": 0,
  "Metadata": "[ONNX Layer: /features.16/token_mixer/token_mixer.2/Conv]"
},{
  "Name": "/features.16/channel_mixer/m/m.0/Conv",
  "LayerType": "CaskGemmConvolution",
  "Inputs": [
  {
    "Name": "/features.16/token_mixer/token_mixer.2/Conv_output_0",
    "Location": "Device",
    "Dimensions": [1,320,14,14],
    "Format/Datatype": "Channel major FP32 format where channel % 4 == 0"
  }],
  "Outputs": [
  {
    "Name": "/features.16/channel_mixer/m/m.0/Conv_output_0",
    "Location": "Device",
    "Dimensions": [1,640,14,14],
    "Format/Datatype": "Channel major FP32 format where channel % 4 == 0"
  }],
  "ParameterType": "Convolution",
  "Kernel": [1,1],
  "PaddingMode": "kEXPLICIT_ROUND_DOWN",
  "PrePadding": [0,0],
  "PostPadding": [0,0],
  "Stride": [1,1],
  "Dilation": [1,1],
  "OutMaps": 640,
  "Groups": 1,
  "Weights": {"Type": "Float", "Count": 204800},
  "Bias": {"Type": "Float", "Count": 640},
  "HasSparseWeights": 0,
  "HasDynamicFilter": 0,
  "HasDynamicBias": 0,
  "HasResidual": 0,
  "ConvXAsActInputIdx": -1,
  "BiasAsActInputIdx": -1,
  "ResAsActInputIdx": -1,
  "Activation": "NONE",
  "TacticName": "sm86_xmma_gemm_f32f32_tf32f32_f32_tn_n_tilesize64x64x64_stage3_warpsize2x2x1_tensor16x8x8",
  "TacticValue": "0x0000000000020338",
  "StreamId": 0,
  "Metadata": "[ONNX Layer: /features.16/channel_mixer/m/m.0/Conv]"
},{
  "Name": "Reformatting CopyNode for Input Tensor 0 to PWN(PWN(PWN(PWN(PWN(/features.16/channel_mixer/m/m.1/Constant_output_0 + (Unnamed Layer* 279) [Shuffle], /features.16/channel_mixer/m/m.1/Div), PWN(/features.16/channel_mixer/m/m.1/Erf)), /features.16/channel_mixer/m/m.1/Constant_1_output_0 + (Unnamed Layer* 283) [Shuffle] + /features.16/channel_mixer/m/m.1/Add), /features.16/channel_mixer/m/m.1/Mul), /features.16/channel_mixer/m/m.1/Constant_2_output_0 + (Unnamed Layer* 287) [Shuffle] + /features.16/channel_mixer/m/m.1/Mul_1)",
  "LayerType": "NoOp",
  "Inputs": [
  {
    "Name": "/features.16/channel_mixer/m/m.0/Conv_output_0",
    "Location": "Device",
    "Dimensions": [1,640,14,14],
    "Format/Datatype": "Channel major FP32 format where channel % 4 == 0"
  }],
  "Outputs": [
  {
    "Name": "Reformatted Input Tensor 0 to PWN(PWN(PWN(PWN(PWN(/features.16/channel_mixer/m/m.1/Constant_output_0 + (Unnamed Layer* 279) [Shuffle], /features.16/channel_mixer/m/m.1/Div), PWN(/features.16/channel_mixer/m/m.1/Erf)), /features.16/channel_mixer/m/m.1/Constant_1_output_0 + (Unnamed Layer* 283) [Shuffle] + /features.16/channel_mixer/m/m.1/Add), /features.16/channel_mixer/m/m.1/Mul), /features.16/channel_mixer/m/m.1/Constant_2_output_0 + (Unnamed Layer* 287) [Shuffle] + /features.16/channel_mixer/m/m.1/Mul_1)",
    "Location": "Device",
    "Dimensions": [1,640,14,14],
    "Format/Datatype": "Channel major FP32 format"
  }],
  "TacticValue": "0x0000000000000000",
  "StreamId": 0,
  "Metadata": ""
},{
  "Name": "PWN(PWN(PWN(PWN(PWN(/features.16/channel_mixer/m/m.1/Constant_output_0 + (Unnamed Layer* 279) [Shuffle], /features.16/channel_mixer/m/m.1/Div), PWN(/features.16/channel_mixer/m/m.1/Erf)), /features.16/channel_mixer/m/m.1/Constant_1_output_0 + (Unnamed Layer* 283) [Shuffle] + /features.16/channel_mixer/m/m.1/Add), /features.16/channel_mixer/m/m.1/Mul), /features.16/channel_mixer/m/m.1/Constant_2_output_0 + (Unnamed Layer* 287) [Shuffle] + /features.16/channel_mixer/m/m.1/Mul_1)",
  "LayerType": "PointWiseV2",
  "Inputs": [
  {
    "Name": "Reformatted Input Tensor 0 to PWN(PWN(PWN(PWN(PWN(/features.16/channel_mixer/m/m.1/Constant_output_0 + (Unnamed Layer* 279) [Shuffle], /features.16/channel_mixer/m/m.1/Div), PWN(/features.16/channel_mixer/m/m.1/Erf)), /features.16/channel_mixer/m/m.1/Constant_1_output_0 + (Unnamed Layer* 283) [Shuffle] + /features.16/channel_mixer/m/m.1/Add), /features.16/channel_mixer/m/m.1/Mul), /features.16/channel_mixer/m/m.1/Constant_2_output_0 + (Unnamed Layer* 287) [Shuffle] + /features.16/channel_mixer/m/m.1/Mul_1)",
    "Location": "Device",
    "Dimensions": [1,640,14,14],
    "Format/Datatype": "Channel major FP32 format"
  }],
  "Outputs": [
  {
    "Name": "/features.16/channel_mixer/m/m.1/Mul_1_output_0",
    "Location": "Device",
    "Dimensions": [1,640,14,14],
…
ures.50/channel_mixer/m/m.1/Mul), /features.50/channel_mixer/m/m.1/Constant_2_output_0 + (Unnamed Layer* 899) [Shuffle] + /features.50/channel_mixer/m/m.1/Mul_1)",
    "Location": "Device",
    "Dimensions": [1,640,14,14],
    "Format/Datatype": "Channel major FP32 format"
  }],
  "Outputs": [
  {
    "Name": "/features.50/channel_mixer/m/m.1/Mul_1_output_0",
    "Location": "Device",
    "Dimensions": [1,640,14,14],
    "Format/Datatype": "Channel major FP32 format"
  }],
  "ParameterType": "PointWise",
  "ParameterSubType": "PointWiseExpression",
  "NbInputArgs": 1,
  "InputArgs": ["arg0"],
  "NbOutputVars": 1,
  "OutputVars": ["var4"],
  "NbParams": 0,
  "Params": [],
  "NbLiterals": 5,
  "Literals": ["1.414214e+00f", "0.000000e+00f", "1.000000e+00f", "0.000000e+00f", "5.000000e-01f"],
  "NbOperations": 5,
  "Operations": ["auto const var0 = pwgen::iDiv(arg0, literal0);", "auto const var1 = pwgen::iErf(var0);", "auto const var2 = pwgen::iPlus(var1, literal2);", "auto const var3 = pwgen::iMul(arg0, var2);", "auto const var4 = pwgen::iMul(var3, literal4);"],
  "TacticValue": "0x0000000000000004",
  "StreamId": 0,
  "Metadata": "[ONNX Layer: /features.50/channel_mixer/m/m.1/Div]\u001e[ONNX Layer: /features.50/channel_mixer/m/m.1/Erf]\u001e[ONNX Layer: /features.50/channel_mixer/m/m.1/Add]\u001e[ONNX Layer: /features.50/channel_mixer/m/m.1/Mul]\u001e[ONNX Layer: /features.50/channel_mixer/m/m.1/Mul_1]"
},{
  "Name": "Reformatting CopyNode for Input Tensor 0 to /features.50/channel_mixer/m/m.2/Conv + /features.50/channel_mixer/Add",
  "LayerType": "NoOp",
  "Inputs": [
  {
    "Name": "/features.50/channel_mixer/m/m.1/Mul_1_output_0",
    "Location": "Device",
    "Dimensions": [1,640,14,14],
    "Format/Datatype": "Channel major FP32 format"
  }],
  "Outputs": [
  {
    "Name": "Reformatted Input Tensor 0 to /features.50/channel_mixer/m/m.2/Conv + /features.50/channel_mixer/Add",
    "Location": "Device",
    "Dimensions": [1,640,14,14],
    "Format/Datatype": "Channel major FP32 format where channel % 4 == 0"
  }],
  "TacticValue": "0x0000000000000000",
  "StreamId": 0,
  "Metadata": ""
},{
  "Name": "/features.50/channel_mixer/m/m.2/Conv + /features.50/channel_mixer/Add",
  "LayerType": "CaskGemmConvolution",
  "Inputs": [
  {
    "Name": "Reformatted Input Tensor 0 to /features.50/channel_mixer/m/m.2/Conv + /features.50/channel_mixer/Add",
    "Location": "Device",
    "Dimensions": [1,640,14,14],
    "Format/Datatype": "Channel major FP32 format where channel % 4 == 0"
  },
  {
    "Name": "/features.50/token_mixer/token_mixer.0/Conv_output_0",
    "Location": "Device",
    "Dimensions": [1,320,14,14],
    "Format/Datatype": "Channel major FP32 format where channel % 4 == 0"
  }],
  "Outputs": [
  {
    "Name": "/features.50/channel_mixer/Add_output_0",
    "Location": "Device",
    "Dimensions": [1,320,14,14],
    "Format/Datatype": "Channel major FP32 format where channel % 4 == 0"
  }],
  "ParameterType": "Convolution",
  "Kernel": [1,1],
  "PaddingMode": "kEXPLICIT_ROUND_DOWN",
  "PrePadding": [0,0],
  "PostPadding": [0,0],
  "Stride": [1,1],
  "Dilation": [1,1],
  "OutMaps": 320,
  "Groups": 1,
  "Weights": {"Type": "Float", "Count": 204800},
  "Bias": {"Type": "Float", "Count": 320},
  "HasSparseWeights": 0,
  "HasDynamicFilter": 0,
  "HasDynamicBias": 0,
  "HasResidual": 1,
  "ConvXAsActInputIdx": -1,
  "BiasAsActInputIdx": -1,
  "ResAsActInputIdx": -1,
  "Activation": "NONE",
  "TacticName": "sm86_xmma_gemm_f32f32_tf32f32_f32_tn_n_tilesize64x32x64_stage4_warpsize2x2x1_tensor16x8x8",
  "TacticValue": "0x00000000000202fb",
  "StreamId": 0,
  "Metadata": "[ONNX Layer: /features.50/channel_mixer/m/m.2/Conv]\u001e[ONNX Layer: /features.50/channel_mixer/Add]"
},{
  "Name": "/features.51/token_mixer/token_mixer.0/Conv",
  "LayerType": "CaskConvolution",
  "Inputs": [
  {
    "Name": "/features.50/channel_mixer/Add_output_0",
    "Location": "Device",
    "Dimensions": [1,320,14,14],
    "Format/Datatype": "Channel major FP32 format where channel % 4 == 0"
  }],
  "Outputs": [
  {
    "Name": "/features.51/token_mixer/token_mixer.0/Conv_output_0",
    "Location": "Device",
    "Dimensions": [1,320,14,14],
    "Format/Datatype": "Channel major FP32 format where channel % 4 == 0"
  }],
  "ParameterType": "Convolution",
  "Kernel": [3,3],
  "PaddingMode": "kEXPLICIT_ROUND_DOWN",
  "PrePadding": [1,1],
  "PostPadding": [1,1],
  "Stride": [1,1],
  "Dilation": [1,1],
  "OutMaps": 320,
  "Groups": 320,
  "Weights": {"Type": "Float", "Count": 2880},
  "Bias": {"Type": "Float", "Count": 320},
  "HasSparseWeights": 0,
  "HasDynamicFilter": 0,
  "HasDynamicBias": 0,
  "HasResidual": 0,
  "ConvXAsActInputIdx": -1,
  "BiasAsActInputIdx": -1,
  "ResAsActInputIdx": -1,
  "Activation": "NONE",
  "HasBias": 1,
  "HasReLU": 0,
  "TacticName": "sm50_xmma_convolution_trt_depthwiseFP32NHWC4_fp32nhwcx4_fp32nhwcx4_fp32kcrs",
  "TacticValue": "0x2cac8ad6921b6398",
  "StreamId": 0,
  "Metadata": "[ONNX Layer: /features.51/token_mixer/token_mixer.0/Conv]"
},{
  "Name": "/features.51/channel_mixer/m/m.0/Conv",
  "LayerType": "CaskGemmConvolution",
  "Inputs": [
  {
    "Name": "/features.51/token_mixer/token_mixer.0/Conv_output_0",
    "Location": "Device",
    "Dimensions": [1,320,14,14],
    "Format/Datatype": "Channel major FP32 format where channel % 4 == 0"
  }],
  "Outputs": [
  {
    "Name": "/features.51/channel_mixer/m/m.0/Conv_output_0",
    "Location": "Device",
    "Dimensions": [1,640,14,14],
    "Format/Datatype": "Channel major FP32 format where channel % 4 == 0"
  }],
  "ParameterType": "Convolution",
  "Kernel": [1,1],
  "PaddingMode": "kEXPLICIT_ROUND_DOWN",
  "PrePadding": [0,0],
  "PostPadding": [0,0],
  "Stride": [1,1],
  "Dilation": [1,1],
  "OutMaps": 640,
  "Groups": 1,
  "Weights": {"Type": "Float", "Count": 204800},
  "Bias": {"Type": "Float", "Count": 640},
  "HasSparseWeights": 0,
  "HasDynamicFilter": 0,
  "HasDynamicBias": 0,
  "HasResidual": 0,
  "ConvXAsActInputIdx": -1,
  "BiasAsActInputIdx": -1,
  "ResAsActInputIdx": -1,
  "Activation": "NONE",
  "TacticName": "sm86_xmma_gemm_f32f32_tf32f32_f32_tn_n_tilesize64x64x64_stage3_warpsize2x2x1_tensor16x8x8",
  "TacticValue": "0x0000000000020338",
  "StreamId": 0,
  "Metadata": "[ONNX Layer: /features.51/channel_mixer/m/m.0/Conv]"
},{
  "Name": "Reformatting CopyNode for Input Tensor 0 to PWN(PWN(PWN(PWN(PWN(/features.51/channel_mixer/m/m.1/Constant_output_0 + (Unnamed Layer* 906) [Shuffle], /features.51/channel_mixer/m/m.1/Div), PWN(/features.51/channel_mixer/m/m.1/Erf)), /features.51/channel_mixer/m/m.1/Constant_1_output_0 + (Unnamed Layer* 910) [Shuffle] + /features.51/channel_mixer/m/m.1/Add), /features.51/channel_mixer/m/m.1/Mul), /features.51/channel_mixer/m/m.1/Constant_2_output_0 + (Unnamed Layer* 914) [Shuffle] + /features.51/channel_mixer/m/m.1/Mul_1)",
  "LayerType": "NoOp",
  "Inputs": [
  {
    "Name": "/features.51/channel_mixer/m/m.0/Conv_output_0",
    "Location": "Device",
    "Dimensions": [1,640,14,14],
    "Format/Datatype": "Channel major FP32 format where channel % 4 == 0"
  }],
  "Outputs": [
  {
    "Name": "Reformatted Input Tensor 0 to PWN(PWN(PWN(PWN(PWN(/features.51/channel_mixer/m/m.1/Constant_output_0 + (Unnamed Layer* 906) [Shuffle], /features.51/channel_mixer/m/m.1/Div), PWN(/features.51/channel_mixer/m/m.1/Erf)), /features.51/channel_mixer/m/m.1/Constant_1_output_0 + (Unnamed Layer* 910) [Shuffle] + /features.51/channel_mixer/m/m.1/Add), /features.51/channel_mixer/m/m.1/Mul), /features.51/channel_mixer/m/m.1/Constant_2_output_0 + (Unnamed Layer* 914) [Shuffle] + /features.51/channel_mixer/m/m.1/Mul_1)",
    "Location": "Device",
    "Dimensions": [1,640,14,14],
    "Format/Datatype": "Channel major FP32 format"
  }],
  "TacticValue": "0x0000000000000000",
  "StreamId": 0,
  "Metadata": ""
},{
  "Name": "PWN(PWN(PWN(PWN(PWN(/features.51/channel_mixer/m/m.1/Constant_output_0 + (Unnamed Layer* 906) [Shuffle], /features.51/channel_mixer/m/m.1/Div), PWN(/features.51/channel_mixer/m/m.1/Erf)), /features.51/channel_mixer/m/m.1/Constant_1_output_0 + (Unnamed Layer* 910) [Shuffle] + /features.51/channel_mixer/m/m.1/Add), /features.51/channel_mixer/m/m.1/Mul), /features.51/channel_mixer/m/m.1/Constant_2_output_0 + (Unnamed Layer* 914) [Shuffle] + /features.51/channel_mixer/m/m.1/Mul_1)",
  "LayerType": "PointWiseV2",
  "Inputs": [
  {
    "Name": "Reformatted Input Tensor 0 to PWN(PWN(PWN(PWN(PWN(/features.51/channel_mixer/m/m.1/Constant_output_0 + (Unnamed Layer* 906) [Shuffle], /features.51/channel_mixer/m/m.1/Div), PWN(/features.51/channel_mixer/m/m.1/Erf)), /features.51/channel_mixer/m/m.1/Constant_1_output_0 + (Unnamed Layer* 910) [Shuffle] + /features.51/channel_mixer/m/m.1/Add), /features.51/channel_mixer/m/m.1/Mul), /features.51/channel_mixer/m/m.1/Constant_2_output_0 + (Unnamed Layer* 914) [Shuffle] + /features.51/channel_mixer/m/m.1/Mul_1)",
    "Location": "Device",
    "Dimensions": [1,640,14,14],
    "Format/Datatype": "Channel major FP32 format"
  }],
  "Outputs": [
  {
    "Name": "/features.51/channel_mixer/m/m.1/Mul_1_output_0",
    "Location": "Device",
    "Dimensions": [1,640,14,14],
    "Format/Datatype": "Channel major FP32 format"
  }],
  "ParameterType": "PointWise",
  "ParameterSubType": "PointWiseExpression",
  "NbInputArgs": 1,
  "InputArgs": ["arg0"],
  "NbOutputVars": 1,
  "OutputVars": ["var4"],
  "NbParams": 0,
  "Params": [],
  "NbLiterals": 5,
  "Literals": ["1.414214e+00f", "0.000000e+00f", "1.000000e+00f", "0.000000e+00f", "5.000000e-01f"],
  "NbOperations": 5,
  "Operations": ["auto const var0 = pwgen::iDiv(arg0, literal0);", "auto const var1 = pwgen::iErf(var0);", "auto const var2 = pwgen::iPlus(var1, literal2);", "auto const var3 = pwgen::iMul(arg0, var2);", "auto const var4 = pwgen::iMul(var3, literal4);"],
  "TacticValue": "0x0000000000000004",
  "StreamId": 0,
  "Metadata": "[ONNX Layer: /features.51/channel_mixer/m/m.1/Div]\u001e[ONNX Layer: /features.51/channel_mixer/m/m.1/Erf]\u001e[ONNX Layer: /features.51/channel_mixer/m/m.1/Add]\u001e[ONNX Layer: /features.51/channel_mixer/m/m.1/Mul]\u001e[ONNX Layer: /features.51/channel_mixer/m/m.1/Mul_1]"
},{
  "Name": "Reformatting CopyNode for Input Tensor 0 to /features.51/channel_mixer/m/m.2/Conv + /features.51/channel_mixer/Add",
  "LayerType": "NoOp",
  "Inputs": [
  {
    "Name": "/features.51/channel_mixer/m/m.1/Mul_1_output_0",
    "Location": "Device",
    "Dimensions": [1,640,14,14],
    "Format/Datatype": "Channel major FP32 format"
  }],
  "Outputs": [
  {
    "Name": "Reformatted Input Tensor 0 to /features.51/channel_mixer/m/m.2/Conv + /features.51/channel_mixer/Add",
    "Location": "Device",
    "Dimensions": [1,640,14,14],
    "Format/Datatype": "Channel major FP32 format where channel % 4 == 0"
  }],
  "TacticValue": "0x0000000000000000",
  "StreamId": 0,
  "Metadata": ""
},{
  "Name": "/features.51/channel_mixer/m/m.2/Conv + /features.51/channel_mixer/Add",
  "LayerType": "CaskGemmConvolution",
  "Inputs": [
  {
    "Name": "Reformatted Input Tensor 0 to /features.51/channel_mixer/m/m.2/Conv + /features.51/channel_mixer/Add",
    "Location": "Device",
    "Dimensions": [1,640,14,14],
    "Format/Datatype": "Channel major FP32 format where channel % 4 == 0"
  },
  {
    "Name": "/features.51/token_mixer/token_mixer.0/Conv_output_0",
    "Location": "Device",
    "Dimensions": [1,320,14,14],
    "Format/Datatype": "Channel major FP32 format where channel % 4 == 0"
  }],
  "Outputs": [
  {
    "Name": "/features.51/channel_mixer/Add_output_0",
    "Location": "Device",
    "Dimensions": [1,320,14,14],
    "Format/Datatype": "Channel major FP32 format where channel % 4 == 0"
  }],
  "ParameterType": "Convolution",
  "Kernel": [1,1],
  "PaddingMode": "kEXPLICIT_ROUND_DOWN",
  "PrePadding": [0,0],
  "PostPadding": [0,0],
  "Stride": [1,1],
  "Dilation": [1,1],
  "OutMaps": 320,
  "Groups": 1,
  "Weights": {"Type": "Float", "Count": 204800},
  "Bias": {"Type": "Float", "Count": 320},
  "HasSparseWeights": 0,
  "HasDynamicFilter": 0,
  "HasDynamicBias": 0,
  "HasResidual": 1,
  "ConvXAsActInputIdx": -1,
  "BiasAsActInputIdx": -1,
  "ResAsActInputIdx": -1,
  "Activation": "NONE",
  "TacticName": "sm86_xmma_gemm_f32f32_tf32f32_f32_tn_n_tilesize64x32x64_stage4_warpsize2x2x1_tensor16x8x8",
  "TacticValue": "0x00000000000202fb",
  "StreamId": 0,
  "Metadata": "[ONNX Layer: /features.51/channel_mixer/m/m.2/Conv]\u001e[ONNX Layer: /features.51/channel_mixer/Add]"
},{
  "Name": "/features.52/token_mixer/token_mixer.0/Conv",
  "LayerType": "CaskConvolution",
  "Inputs": [
  {
    "Name": "/features.51/channel_mixer/Add_output_0",
    "Location": "Device",
    "Dimensions": [1,320,14,14],
    "Format/Datatype": "Channel major FP32 format where channel % 4 == 0"
  }],
  "Outputs": [
  {
    "Name": "/features.52/token_mixer/token_mixer.0/Conv_output_0",
    "Location": "Device",
    "Dimensions": [1,320,7,7],
    "Format/Datatype": "Channel major FP32 format where channel % 4 == 0"
  }],
  "ParameterType": "Convolution",
  "Kernel": [3,3],
  "PaddingMode": "kEXPLICIT_ROUND_DOWN",
  "PrePadding": [1,1],
  "PostPadding": [1,1],
  "Stride": [2,2],
  "Dilation": [1,1],
  "OutMaps": 320,
  "Groups": 320,
  "Weights": {"Type": "Float", "Count": 2880},
  "Bias": {"Type": "Float", "Count": 320},
  "HasSparseWeights": 0,
  "HasDynamicFilter": 0,
  "HasDynamicBias": 0,
  "HasResidual": 0,
  "ConvXAsActInputIdx": -1,
  "BiasAsActInputIdx": -1,
  "ResAsActInputIdx": -1,
  "Activation": "NONE",
  "HasBias": 1,
  "HasReLU": 0,
  "TacticName": "sm50_xmma_fprop_conv3d_c1_k1_f32f32_f32_f32_ndhwcktrsc_ndhwc_tilesize64x8_threadsize64x2_general_alignC4",
  "TacticValue": "0xf7bc7502ac7dff9b",
  "StreamId": 0,
  "Metadata": "[ONNX Layer: /features.52/token_mixer/token_mixer.0/Conv]"
},{
  "Name": "/features.52/token_mixer/token_mixer.2/Conv",
  "LayerType": "CaskGemmConvolution",
  "Inputs": [
  {
    "Name": "/features.52/token_mixer/token_mixer.0/Conv_output_0",
    "Location": "Device",
    "Dimensions": [1,320,7,7],
    "Format/Datatype": "Channel major FP32 format where channel % 4 == 0"
  }],
  "Outputs": [
  {
    "Name": "/features.52/token_mixer/token_mixer.2/Conv_output_0",
    "Location": "Device",
    "Dimensions": [1,640,7,7],
    "Format/Datatype": "Channel major FP32 format where channel % 4 == 0"
  }],
  "ParameterType": "Convolution",
  "Kernel": [1,1],
  "PaddingMode": "kEXPLICIT_ROUND_DOWN",
  "PrePadding": [0,0],
  "PostPadding": [0,0],
  "Stride": [1,1],
  "Dilation": [1,1],
  "OutMaps": 640,
  "Groups": 1,
  "Weights": {"Type": "Float", "Count": 204800},
  "Bias": {"Type": "Float", "Count": 640},
  "HasSparseWeights": 0,
  "HasDynamicFilter": 0,
  "HasDynamicBias": 0,
  "HasResidual": 0,
  "ConvXAsActInputIdx": -1,
  "BiasAsActInputIdx": -1,
  "ResAsActInputIdx": -1,
  "Activation": "NONE",
  "TacticName": "sm86_xmma_gemm_f32f32_tf32f32_f32_tn_n_tilesize32x32x64_stage6_warpsize2x2x1_tensor16x8x8",
  "TacticValue": "0x000000000002038c",
  "StreamId": 0,
  "Metadata": "[ONNX Layer: /features.52/token_mixer/token_mixer.2/Conv]"
},{
  "Name": "/features.52/channel_mixer/m/m.0/Conv",
  "LayerType": "CaskGemmConvolution",
  "Inputs": [
  {
    "Name": "/features.52/token_mixer/token_mixer.2/Conv_output_0",
    "Location": "Device",
    "Dimensions": [1,640,7,7],
    "Format/Datatype": "Channel major FP32 format where channel % 4 == 0"
  }],
  "Outputs": [
  {
    "Name": "/features.52/channel_mixer/m/m.0/Conv_output_0",
    "Location": "Device",
    "Dimensions": [1,1280,7,7],
    "Format/Datatype": "Channel major FP32 format where channel % 4 == 0"
  }],
  "ParameterType": "Convolution",
  "Kernel": [1,1],
  "PaddingMode": "kEXPLICIT_ROUND_DOWN",
  "PrePadding": [0,0],
  "PostPadding": [0,0],
  "Stride": [1,1],
  "Dilation": [1,1],
  "OutMaps": 1280,
  "Groups": 1,
  "Weights": {"Type": "Float", "Count": 819200},
  "Bias": {"Type": "Float", "Count": 1280},
  "HasSparseWeights": 0,
  "HasDynamicFilter": 0,
  "HasDynamicBias": 0,
  "HasResidual": 0,
  "ConvXAsActInputIdx": -1,
  "BiasAsActInputIdx": -1,
  "ResAsActInputIdx": -1,
  "Activation": "NONE",
  "TacticName": "sm80_xmma_gemm_f32f32_tf32f32_f32_nn_n_tilesize64x32x64_stage4_warpsize2x1x2_tensor16x8x8",
  "TacticValue": "0x0000000000020332",
  "StreamId": 0,
  "Metadata": "[ONNX Layer: /features.52/channel_mixer/m/m.0/Conv]"
},{
  "Name": "Reformatting CopyNode for Input Tensor 0 to PWN(PWN(PWN(PWN(PWN(/features.52/channel_mixer/m/m.1/Constant_output_0 + (Unnamed Layer* 922) [Shuffle], /features.52/channel_mixer/m/m.1/Div), PWN(/features.52/channel_mixer/m/m.1/Erf)), /features.52/channel_mixer/m/m.1/Constant_1_output_0 + (Unnamed Layer* 926) [Shuffle] + /features.52/channel_mixer/m/m.1/Add), /features.52/channel_mixer/m/m.1/Mul), /features.52/channel_mixer/m/m.1/Constant_2_output_0 + (Unnamed Layer* 930) [Shuffle] + /features.52/channel_mixer/m/m.1/Mul_1)",
  "LayerType": "NoOp",
  "Inputs": [
  {
    "Name": "/features.52/channel_mixer/m/m.0/Conv_output_0",
    "Location": "Device",
    "Dimensions": [1,1280,7,7],
    "Format/Datatype": "Channel major FP32 format where channel % 4 == 0"
  }],
  "Outputs": [
  {
    "Name": "Reformatted Input Tensor 0 to PWN(PWN(PWN(PWN(PWN(/features.52/channel_mixer/m/m.1/Constant_output_0 + (Unnamed Layer* 922) [Shuffle], /features.52/channel_mixer/m/m.1/Div), PWN(/features.52/channel_mixer/m/m.1/Erf)), /features.52/channel_mixer/m/m.1/Constant_1_output_0 + (Unnamed Layer* 926) [Shuffle] + /features.52/channel_mixer/m/m.1/Add), /features.52/channel_mixer/m/m.1/Mul), /features.52/channel_mixer/m/m.1/Constant_2_output_0 + (Unnamed Layer* 930) [Shuffle] + /features.52/channel_mixer/m/m.1/Mul_1)",
    "Location": "Device",
    "Dimensions": [1,1280,7,7],
    "Format/Datatype": "Channel major FP32 format"
  }],
  "TacticValue": "0x0000000000000000",
  "StreamId": 0,
  "Metadata": ""
},{
  "Name": "PWN(PWN(PWN(PWN(PWN(/features.52/channel_mixer/m/m.1/Constant_output_0 + (Unnamed Layer* 922) [Shuffle], /features.52/channel_mixer/m/m.1/Div), PWN(/features.52/channel_mixer/m/m.1/Erf)), /features.52/channel_mixer/m/m.1/Constant_1_output_0 + (Unnamed Layer* 926) [Shuffle] + /features.52/channel_mixer/m/m.1/Add), /features.52/channel_mixer/m/m.1/Mul), /features.52/channel_mixer/m/m.1/Constant_2_output_0 + (Unnamed Layer* 930) [Shuffle] + /features.52/channel_mixer/m/m.1/Mul_1)",
  "LayerType": "PointWiseV2",
  "Inputs": [
  {
    "Name": "Reformatted Input Tensor 0 to PWN(PWN(PWN(PWN(PWN(/features.52/channel_mixer/m/m.1/Constant_output_0 + (Unnamed Layer* 922) [Shuffle], /features.52/channel_mixer/m/m.1/Div), PWN(/features.52/channel_mixer/m/m.1/Erf)), /features.52/channel_mixer/m/m.1/Constant_1_output_0 + (Unnamed Layer* 926) [Shuffle] + /features.52/channel_mixer/m/m.1/Add), /features.52/channel_mixer/m/m.1/Mul), /features.52/channel_mixer/m/m.1/Constant_2_output_0 + (Unnamed Layer* 930) [Shuffle] + /features.52/channel_mixer/m/m.1/Mul_1)",
    "Location": "Device",
    "Dimensions": [1,1280,7,7],
    "Format/Datatype": "Channel major FP32 format"
  }],
  "Outputs": [
  {
    "Name": "/features.52/channel_mixer/m/m.1/Mul_1_output_0",
    "Location": "Device",
    "Dimensions": [1,1280,7,7],
    "Format/Datatype": "Channel major FP32 format"
  }],
  "ParameterType": "PointWise",
  "ParameterSubType": "PointWiseExpression",
  "NbInputArgs": 1,
  "InputArgs": ["arg0"],
  "NbOutputVars": 1,
  "OutputVars": ["var4"],
  "NbParams": 0,
  "Params": [],
  "NbLiterals": 5,
  "Literals": ["1.414214e+00f", "0.000000e+00f", "1.000000e+00f", "0.000000e+00f", "5.000000e-01f"],
  "NbOperations": 5,
  "Operations": ["auto const var0 = pwgen::iDiv(arg0, literal0);", "auto const var1 = pwgen::iErf(var0);", "auto const var2 = pwgen::iPlus(var1, literal2);", "auto const var3 = pwgen::iMul(arg0, var2);", "auto const var4 = pwgen::iMul(var3, literal4);"],
  "TacticValue": "0x000000000000001c",
  "StreamId": 0,
  "Metadata": "[ONNX Layer: /features.52/channel_mixer/m/m.1/Div]\u001e[ONNX Layer: /features.52/channel_mixer/m/m.1/Erf]\u001e[ONNX Layer: /features.52/channel_mixer/m/m.1/Add]\u001e[ONNX Layer: /features.52/channel_mixer/m/m.1/Mul]\u001e[ONNX Layer: /features.52/channel_mixer/m/m.1/Mul_1]"
},{
  "Name": "Reformatting CopyNode for Input Tensor 0 to /features.52/channel_mixer/m/m.2/Conv + /features.52/channel_mixer/Add",
  "LayerType": "NoOp",
  "Inputs": [
  {
    "Name": "/features.52/channel_mixer/m/m.1/Mul_1_output_0",
    "Location": "Device",
    "Dimensions": [1,1280,7,7],
    "Format/Datatype": "Channel major FP32 format"
  }],
  "Outputs": [
  {
    "Name": "Reformatted Input Tensor 0 to /features.52/channel_mixer/m/m.2/Conv + /features.52/channel_mixer/Add",
    "Location": "Device",
    "Dimensions": [1,1280,7,7],
    "Format/Datatype": "Channel major FP32 format where channel % 4 == 0"
  }],
  "TacticValue": "0x0000000000000000",
  "StreamId": 0,
  "Metadata": ""
},{
  "Name": "/features.52/channel_mixer/m/m.2/Conv + /features.52/channel_mixer/Add",
  "LayerType": "CaskGemmConvolution",
  "Inputs": [
  {
    "Name": "Reformatted Input Tensor 0 to /features.52/channel_mixer/m/m.2/Conv + /features.52/channel_mixer/Add",
    "Location": "Device",
    "Dimensions": [1,1280,7,7],
    "Format/Datatype": "Channel major FP32 format where channel % 4 == 0"
  },
  {
    "Name": "/features.52/token_mixer/token_mixer.2/Conv_output_0",
    "Location": "Device",
    "Dimensions": [1,640,7,7],
    "Format/Datatype": "Channel major FP32 format where channel % 4 == 0"
  }],
  "Outputs": [
  {
    "Name": "/features.52/channel_mixer/Add_output_0",
    "Location": "Device",
    "Dimensions": [1,640,7,7],
    "Format/Datatype": "Channel major FP32 format where channel % 4 == 0"
  }],
  "ParameterType": "Convolution",
  "Kernel": [1,1],
  "PaddingMode": "kEXPLICIT_ROUND_DOWN",
  "PrePadding": [0,0],
  "PostPadding": [0,0],
  "Stride": [1,1],
  "Dilation": [1,1],
  "OutMaps": 640,
  "Groups": 1,
  "Weights": {"Type": "Float", "Count": 819200},
  "Bias": {"Type": "Float", "Count": 640},
  "HasSparseWeights": 0,
  "HasDynamicFilter": 0,
  "HasDynamicBias": 0,
  "HasResidual": 1,
  "ConvXAsActInputIdx": -1,
  "BiasAsActInputIdx": -1,
  "ResAsActInputIdx": -1,
  "Activation": "NONE",
  "TacticName": "sm80_xmma_gemm_f32f32_tf32f32_f32_nn_n_tilesize32x32x64_stage3_warpsize2x1x2_tensor16x8x8",
  "TacticValue": "0x0000000000020308",
  "StreamId": 0,
  "Metadata": "[ONNX Layer: /features.52/channel_mixer/m/m.2/Conv]\u001e[ONNX Layer: /features.52/channel_mixer/Add]"
},{
  "Name": "/features.53/token_mixer/token_mixer.0/Conv",
  "LayerType": "CaskConvolution",
  "Inputs": [
  {
    "Name": "/features.52/channel_mixer/Add_output_0",
    "Location": "Device",
    "Dimensions": [1,640,7,7],
    "Format/Datatype": "Channel major FP32 format where channel % 4 == 0"
  }],
  "Outputs": [
  {
    "Name": "/features.53/token_mixer/token_mixer.0/Conv_output_0",
    "Location": "Device",
    "Dimensions": [1,640,7,7],
    "Format/Datatype": "Channel major FP32 format where channel % 4 == 0"
  }],
  "ParameterType": "Convolution",
  "Kernel": [3,3],
  "PaddingMode": "kEXPLICIT_ROUND_DOWN",
  "PrePadding": [1,1],
  "PostPadding": [1,1],
  "Stride": [1,1],
  "Dilation": [1,1],
  "OutMaps": 640,
  "Groups": 640,
  "Weights": {"Type": "Float", "Count": 5760},
  "Bias": {"Type": "Float", "Count": 640},
  "HasSparseWeights": 0,
  "HasDynamicFilter": 0,
  "HasDynamicBias": 0,
  "HasResidual": 0,
  "ConvXAsActInputIdx": -1,
  "BiasAsActInputIdx": -1,
  "ResAsActInputIdx": -1,
  "Activation": "NONE",
  "HasBias": 1,
  "HasReLU": 0,
  "TacticName": "sm50_xmma_convolution_trt_depthwiseFP32NHWC4_fp32nhwcx4_fp32nhwcx4_fp32kcrs",
  "TacticValue": "0x2cac8ad6921b6398",
  "StreamId": 0,
  "Metadata": "[ONNX Layer: /features.53/token_mixer/token_mixer.0/Conv]"
},{
  "Name": "/features.53/token_mixer/token_mixer.1/ReduceMean",
  "LayerType": "CaskPooling",
  "Inputs": [
  {
    "Name": "/features.53/token_mixer/token_mixer.0/Conv_output_0",
    "Location": "Device",
    "Dimensions": [1,640,7,7],
    "Format/Datatype": "Channel major FP32 format where channel % 4 == 0"
  }],
  "Outputs": [
  {
    "Name": "/features.53/token_mixer/token_mixer.1/ReduceMean_output_0",
    "Location": "Device",
    "Dimensions": [1,640,1,1],
    "Format/Datatype": "Channel major FP32 format where channel % 4 == 0"
  }],
  "ParameterType": "Pooling",
  "PoolingType": "AVERAGE",
  "WindowSize": [7,7],
  "PaddingMode": "kEXPLICIT_ROUND_DOWN",
  "PrePadding": [0,0],
  "PostPadding": [0,0],
  "Stride": [1,1],
  "BlendFactor": 0,
  "AverageCountExcludesPadding": 1,
  "TacticName": "sm50_xmma_pooling_fw_4d_FP32FP32NHWC_Average_FastDiv_CAlign4",
  "TacticValue": "0xfab3e2ee1c085a9a",
  "StreamId": 0,
  "Metadata": "[ONNX Layer: /features.53/token_mixer/token_mixer.1/ReduceMean]"
},{
  "Name": "Reformatting CopyNode for Input Tensor 0 to /features.53/token_mixer/token_mixer.1/fc1/Conv + /features.53/token_mixer/token_mixer.1/act/Relu",
  "LayerType": "NoOp",
  "Inputs": [
  {
    "Name": "/features.53/token_mixer/token_mixer.1/ReduceMean_output_0",
    "Location": "Device",
    "Dimensions": [1,640,1,1],
    "Format/Datatype": "Channel major FP32 format where channel % 4 == 0"
  }],
  "Outputs": [
  {
    "Name": "Reformatted Input Tensor 0 to /features.53/token_mixer/token_mixer.1/fc1/Conv + /features.53/token_mixer/token_mixer.1/act/Relu",
    "Location": "Device",
    "Dimensions": [1,640,1,1],
    "Format/Datatype": "Row major linear FP32"
  }],
  "TacticValue": "0x0000000000000000",
  "StreamId": 0,
  "Metadata": ""
},{
  "Name": "/features.53/token_mixer/token_mixer.1/fc1/Conv + /features.53/token_mixer/token_mixer.1/act/Relu",
  "LayerType": "CaskGemmConvolution",
  "Inputs": [
  {
    "Name": "Reformatted Input Tensor 0 to /features.53/token_mixer/token_mixer.1/fc1/Conv + /features.53/token_mixer/token_mixer.1/act/Relu",
    "Location": "Device",
    "Dimensions": [1,640,1,1],
    "Format/Datatype": "Row major linear FP32"
  }],
  "Outputs": [
  {
    "Name": "/features.53/token_mixer/token_mixer.1/act/Relu_output_0",
    "Location": "Device",
    "Dimensions": [1,160,1,1],
    "Format/Datatype": "Row major linear FP32"
  }],
  "ParameterType": "Convolution",
  "Kernel": [1,1],
  "PaddingMode": "kEXPLICIT_ROUND_DOWN",
  "PrePadding": [0,0],
  "PostPadding": [0,0],
  "Stride": [1,1],
  "Dilation": [1,1],
  "OutMaps": 160,
  "Groups": 1,
  "Weights": {"Type": "Float", "Count": 102400},
  "Bias": {"Type": "Float", "Count": 160},
  "HasSparseWeights": 0,
  "HasDynamicFilter": 0,
  "HasDynamicBias": 0,
  "HasResidual": 0,
  "ConvXAsActInputIdx": -1,
  "BiasAsActInputIdx": -1,
  "ResAsActInputIdx": -1,
  "Activation": "RELU",
  "TacticName": "sm50_xmma_cublas_gemvx_f32f32_f32_f32_nn_n_int32_unit_n_launch_param8x32x1_strided_unit_stride",
  "TacticValue": "0x000000000002044b",
  "StreamId": 0,
  "Metadata": "[ONNX Layer: /features.53/token_mixer/token_mixer.1/fc1/Conv]\u001e[ONNX Layer: /features.53/token_mixer/token_mixer.1/act/Relu]"
},{
  "Name": "/features.53/token_mixer/token_mixer.1/fc2/Conv",
  "LayerType": "CaskGemmConvolution",
  "Inputs": [
  {
    "Name": "/features.53/token_mixer/token_mixer.1/act/Relu_output_0",
    "Location": "Device",
    "Dimensions": [1,160,1,1],
    "Format/Datatype": "Row major linear FP32"
  }],
  "Outputs": [
  {
    "Name": "/features.53/token_mixer/token_mixer.1/fc2/Conv_output_0",
    "Location": "Device",
    "Dimensions": [1,640,1,1],
    "Format/Datatype": "Row major linear FP32"
  }],
  "ParameterType": "Convolution",
  "Kernel": [1,1],
  "PaddingMode": "kEXPLICIT_ROUND_DOWN",
  "PrePadding": [0,0],
  "PostPadding": [0,0],
  "Stride": [1,1],
  "Dilation": [1,1],
  "OutMaps": 640,
  "Groups": 1,
  "Weights": {"Type": "Float", "Count": 102400},
  "Bias": {"Type": "Float", "Count": 640},
  "HasSparseWeights": 0,
  "HasDynamicFilter": 0,
  "HasDynamicBias": 0,
  "HasResidual": 0,
  "ConvXAsActInputIdx": -1,
  "BiasAsActInputIdx": -1,
  "ResAsActInputIdx": -1,
  "Activation": "NONE",
  "TacticName": "sm50_xmma_cublas_gemvx_f32f32_f32_f32_nn_n_int32_unit_n_launch_param16x8x1_strided_unit_stride",
  "TacticValue": "0x00000000000205c5",
  "StreamId": 0,
  "Metadata": "[ONNX Layer: /features.53/token_mixer/token_mixer.1/fc2/Conv]"
},{
  "Name": "Reformatting CopyNode for Input Tensor 0 to PWN(PWN(/features.53/token_mixer/token_mixer.1/gate/Sigmoid), /features.53/token_mixer/token_mixer.1/Mul)",
  "LayerType": "NoOp",
  "Inputs": [
  {
    "Name": "/features.53/token_mixer/token_mixer.1/fc2/Conv_output_0",
    "Location": "Device",
    "Dimensions": [1,640,1,1],
    "Format/Datatype": "Row major linear FP32"
  }],
  "Outputs": [
  {
    "Name": "Reformatted Input Tensor 0 to PWN(PWN(/features.53/token_mixer/token_mixer.1/gate/Sigmoid), /features.53/token_mixer/token_mixer.1/Mul)",
    "Location": "Device",
    "Dimensions": [1,640,1,1],
    "Format/Datatype": "Channel major FP32 format where channel % 4 == 0"
  }],
  "TacticValue": "0x0000000000000000",
  "StreamId": 0,
  "Metadata": ""
},{
  "Name": "PWN(PWN(/features.53/token_mixer/token_mixer.1/gate/Sigmoid), /features.53/token_mixer/token_mixer.1/Mul)",
  "LayerType": "PointWiseV2",
  "Inputs": [
  {
    "Name": "Reformatted Input Tensor 0 to PWN(PWN(/features.53/token_mixer/token_mixer.1/gate/Sigmoid), /features.53/token_mixer/token_mixer.1/Mul)",
    "Location": "Device",
    "Dimensions": [1,640,1,1],
    "Format/Datatype": "Channel major FP32 format where channel % 4 == 0"
  },
  {
    "Name": "/features.53/token_mixer/token_mixer.0/Conv_output_0",
    "Location": "Device",
    "Dimensions": [1,640,7,7],
    "Format/Datatype": "Channel major FP32 format where channel % 4 == 0"
  }],
  "Outputs": [
  {
    "Name": "/features.53/token_mixer/token_mixer.1/Mul_output_0",
    "Location": "Device",
    "Dimensions": [1,640,7,7],
    "Format/Datatype": "Channel major FP32 format where channel % 4 == 0"
  }],
  "ParameterType": "PointWise",
  "ParameterSubType": "PointWiseExpression",
  "NbInputArgs": 2,
  "InputArgs": ["arg0", "arg1"],
  "NbOutputVars": 1,
  "OutputVars": ["var4"],
  "NbParams": 0,
  "Params": [],
  "NbLiterals": 5,
  "Literals": ["0.000000e+00f", "1.000000e+00f", "0.000000e+00f", "0.000000e+00f", "1.000000e+00f"],
  "NbOperations": 5,
  "Operations": ["auto const var0 = pwgen::iNeg(arg0);", "auto const var1 = pwgen::iExp(var0);", "auto const var2 = pwgen::iPlus(literal4, var1);", "auto const var3 = pwgen::iRcp(var2);", "auto const var4 = pwgen::iMul(arg1, var3);"],
  "TacticValue": "0x0000000000000014",
  "StreamId": 0,
  "Metadata": "[ONNX Layer: /features.53/token_mixer/token_mixer.1/gate/Sigmoid]\u001e[ONNX Layer: /features.53/token_mixer/token_mixer.1/Mul]"
},{
  "Name": "/features.53/channel_mixer/m/m.0/Conv",
  "LayerType": "CaskGemmConvolution",
  "Inputs": [
  {
    "Name": "/features.53/token_mixer/token_mixer.1/Mul_output_0",
    "Location": "Device",
    "Dimensions": [1,640,7,7],
    "Format/Datatype": "Channel major FP32 format where channel % 4 == 0"
  }],
  "Outputs": [
  {
    "Name": "/features.53/channel_mixer/m/m.0/Conv_output_0",
    "Location": "Device",
    "Dimensions": [1,1280,7,7],
    "Format/Datatype": "Channel major FP32 format where channel % 4 == 0"
  }],
  "ParameterType": "Convolution",
  "Kernel": [1,1],
  "PaddingMode": "kEXPLICIT_ROUND_DOWN",
  "PrePadding": [0,0],
  "PostPadding": [0,0],
  "Stride": [1,1],
  "Dilation": [1,1],
  "OutMaps": 1280,
  "Groups": 1,
  "Weights": {"Type": "Float", "Count": 819200},
  "Bias": {"Type": "Float", "Count": 1280},
  "HasSparseWeights": 0,
  "HasDynamicFilter": 0,
  "HasDynamicBias": 0,
  "HasResidual": 0,
  "ConvXAsActInputIdx": -1,
  "BiasAsActInputIdx": -1,
  "ResAsActInputIdx": -1,
  "Activation": "NONE",
  "TacticName": "sm80_xmma_gemm_f32f32_tf32f32_f32_nn_n_tilesize64x32x64_stage4_warpsize2x1x2_tensor16x8x8",
  "TacticValue": "0x0000000000020332",
  "StreamId": 0,
  "Metadata": "[ONNX Layer: /features.53/channel_mixer/m/m.0/Conv]"
},{
  "Name": "Reformatting CopyNode for Input Tensor 0 to PWN(PWN(PWN(PWN(PWN(/features.53/channel_mixer/m/m.1/Constant_output_0 + (Unnamed Layer* 943) [Shuffle], /features.53/channel_mixer/m/m.1/Div), PWN(/features.53/channel_mixer/m/m.1/Erf)), /features.53/channel_mixer/m/m.1/Constant_1_output_0 + (Unnamed Layer* 947) [Shuffle] + /features.53/channel_mixer/m/m.1/Add), /features.53/channel_mixer/m/m.1/Mul), /features.53/channel_mixer/m/m.1/Constant_2_output_0 + (Unnamed Layer* 951) [Shuffle] + /features.53/channel_mixer/m/m.1/Mul_1)",
  "LayerType": "NoOp",
  "Inputs": [
  {
    "Name": "/features.53/channel_mixer/m/m.0/Conv_output_0",
    "Location": "Device",
    "Dimensions": [1,1280,7,7],
    "Format/Datatype": "Channel major FP32 format where channel % 4 == 0"
  }],
  "Outputs": [
  {
    "Name": "Reformatted Input Tensor 0 to PWN(PWN(PWN(PWN(PWN(/features.53/channel_mixer/m/m.1/Constant_output_0 + (Unnamed Layer* 943) [Shuffle], /features.53/channel_mixer/m/m.1/Div), PWN(/features.53/channel_mixer/m/m.1/Erf)), /features.53/channel_mixer/m/m.1/Constant_1_output_0 + (Unnamed Layer* 947) [Shuffle] + /features.53/channel_mixer/m/m.1/Add), /features.53/channel_mixer/m/m.1/Mul), /features.53/channel_mixer/m/m.1/Constant_2_output_0 + (Unnamed Layer* 951) [Shuffle] + /features.53/channel_mixer/m/m.1/Mul_1)",
    "Location": "Device",
    "Dimensions": [1,1280,7,7],
    "Format/Datatype": "Channel major FP32 format"
  }],
  "TacticValue": "0x0000000000000000",
  "StreamId": 0,
  "Metadata": ""
},{
  "Name": "PWN(PWN(PWN(PWN(PWN(/features.53/channel_mixer/m/m.1/Constant_output_0 + (Unnamed Layer* 943) [Shuffle], /features.53/channel_mixer/m/m.1/Div), PWN(/features.53/channel_mixer/m/m.1/Erf)), /features.53/channel_mixer/m/m.1/Constant_1_output_0 + (Unnamed Layer* 947) [Shuffle] + /features.53/channel_mixer/m/m.1/Add), /features.53/channel_mixer/m/m.1/Mul), /features.53/channel_mixer/m/m.1/Constant_2_output_0 + (Unnamed Layer* 951) [Shuffle] + /features.53/channel_mixer/m/m.1/Mul_1)",
  "LayerType": "PointWiseV2",
  "Inputs": [
  {
    "Name": "Reformatted Input Tensor 0 to PWN(PWN(PWN(PWN(PWN(/features.53/channel_mixer/m/m.1/Constant_output_0 + (Unnamed Layer* 943) [Shuffle], /features.53/channel_mixer/m/m.1/Div), PWN(/features.53/channel_mixer/m/m.1/Erf)), /features.53/channel_mixer/m/m.1/Constant_1_output_0 + (Unnamed Layer* 947) [Shuffle] + /features.53/channel_mixer/m/m.1/Add), /features.53/channel_mixer/m/m.1/Mul), /features.53/channel_mixer/m/m.1/Constant_2_output_0 + (Unnamed Layer* 951) [Shuffle] + /features.53/channel_mixer/m/m.1/Mul_1)",
    "Location": "Device",
    "Dimensions": [1,1280,7,7],
    "Format/Datatype": "Channel major FP32 format"
  }],
  "Outputs": [
  {
    "Name": "/features.53/channel_mixer/m/m.1/Mul_1_output_0",
    "Location": "Device",
    "Dimensions": [1,1280,7,7],
    "Format/Datatype": "Channel major FP32 format"
  }],
  "ParameterType": "PointWise",
  "ParameterSubType": "PointWiseExpression",
  "NbInputArgs": 1,
  "InputArgs": ["arg0"],
  "NbOutputVars": 1,
  "OutputVars": ["var4"],
  "NbParams": 0,
  "Params": [],
  "NbLiterals": 5,
  "Literals": ["1.414214e+00f", "0.000000e+00f", "1.000000e+00f", "0.000000e+00f", "5.000000e-01f"],
  "NbOperations": 5,
  "Operations": ["auto const var0 = pwgen::iDiv(arg0, literal0);", "auto const var1 = pwgen::iErf(var0);", "auto const var2 = pwgen::iPlus(var1, literal2);", "auto const var3 = pwgen::iMul(arg0, var2);", "auto const var4 = pwgen::iMul(var3, literal4);"],
  "TacticValue": "0x000000000000001c",
  "StreamId": 0,
  "Metadata": "[ONNX Layer: /features.53/channel_mixer/m/m.1/Div]\u001e[ONNX Layer: /features.53/channel_mixer/m/m.1/Erf]\u001e[ONNX Layer: /features.53/channel_mixer/m/m.1/Add]\u001e[ONNX Layer: /features.53/channel_mixer/m/m.1/Mul]\u001e[ONNX Layer: /features.53/channel_mixer/m/m.1/Mul_1]"
},{
  "Name": "Reformatting CopyNode for Input Tensor 0 to /features.53/channel_mixer/m/m.2/Conv + /features.53/channel_mixer/Add",
  "LayerType": "NoOp",
  "Inputs": [
  {
    "Name": "/features.53/channel_mixer/m/m.1/Mul_1_output_0",
    "Location": "Device",
    "Dimensions": [1,1280,7,7],
    "Format/Datatype": "Channel major FP32 format"
  }],
  "Outputs": [
  {
    "Name": "Reformatted Input Tensor 0 to /features.53/channel_mixer/m/m.2/Conv + /features.53/channel_mixer/Add",
    "Location": "Device",
    "Dimensions": [1,1280,7,7],
    "Format/Datatype": "Channel major FP32 format where channel % 4 == 0"
  }],
  "TacticValue": "0x0000000000000000",
  "StreamId": 0,
  "Metadata": ""
},{
  "Name": "/features.53/channel_mixer/m/m.2/Conv + /features.53/channel_mixer/Add",
  "LayerType": "CaskGemmConvolution",
  "Inputs": [
  {
    "Name": "Reformatted Input Tensor 0 to /features.53/channel_mixer/m/m.2/Conv + /features.53/channel_mixer/Add",
    "Location": "Device",
    "Dimensions": [1,1280,7,7],
    "Format/Datatype": "Channel major FP32 format where channel % 4 == 0"
  },
  {
    "Name": "/features.53/token_mixer/token_mixer.1/Mul_output_0",
    "Location": "Device",
    "Dimensions": [1,640,7,7],
    "Format/Datatype": "Channel major FP32 format where channel % 4 == 0"
  }],
  "Outputs": [
  {
    "Name": "/features.53/channel_mixer/Add_output_0",
    "Location": "Device",
    "Dimensions": [1,640,7,7],
    "Format/Datatype": "Channel major FP32 format where channel % 4 == 0"
  }],
  "ParameterType": "Convolution",
  "Kernel": [1,1],
  "PaddingMode": "kEXPLICIT_ROUND_DOWN",
  "PrePadding": [0,0],
  "PostPadding": [0,0],
  "Stride": [1,1],
  "Dilation": [1,1],
  "OutMaps": 640,
  "Groups": 1,
  "Weights": {"Type": "Float", "Count": 819200},
  "Bias": {"Type": "Float", "Count": 640},
  "HasSparseWeights": 0,
  "HasDynamicFilter": 0,
  "HasDynamicBias": 0,
  "HasResidual": 1,
  "ConvXAsActInputIdx": -1,
  "BiasAsActInputIdx": -1,
  "ResAsActInputIdx": -1,
  "Activation": "NONE",
  "TacticName": "sm80_xmma_gemm_f32f32_tf32f32_f32_nn_n_tilesize32x32x64_stage3_warpsize2x1x2_tensor16x8x8",
  "TacticValue": "0x0000000000020308",
  "StreamId": 0,
  "Metadata": "[ONNX Layer: /features.53/channel_mixer/m/m.2/Conv]\u001e[ONNX Layer: /features.53/channel_mixer/Add]"
},{
  "Name": "/features.54/token_mixer/token_mixer.0/Conv",
  "LayerType": "CaskConvolution",
  "Inputs": [
  {
    "Name": "/features.53/channel_mixer/Add_output_0",
    "Location": "Device",
    "Dimensions": [1,640,7,7],
    "Format/Datatype": "Channel major FP32 format where channel % 4 == 0"
  }],
  "Outputs": [
  {
    "Name": "/features.54/token_mixer/token_mixer.0/Conv_output_0",
    "Location": "Device",
    "Dimensions": [1,640,7,7],
    "Format/Datatype": "Channel major FP32 format where channel % 4 == 0"
  }],
  "ParameterType": "Convolution",
  "Kernel": [3,3],
  "PaddingMode": "kEXPLICIT_ROUND_DOWN",
  "PrePadding": [1,1],
  "PostPadding": [1,1],
  "Stride": [1,1],
  "Dilation": [1,1],
  "OutMaps": 640,
  "Groups": 640,
  "Weights": {"Type": "Float", "Count": 5760},
  "Bias": {"Type": "Float", "Count": 640},
  "HasSparseWeights": 0,
  "HasDynamicFilter": 0,
  "HasDynamicBias": 0,
  "HasResidual": 0,
  "ConvXAsActInputIdx": -1,
  "BiasAsActInputIdx": -1,
  "ResAsActInputIdx": -1,
  "Activation": "NONE",
  "HasBias": 1,
  "HasReLU": 0,
  "TacticName": "sm50_xmma_convolution_trt_depthwiseFP32NHWC4_fp32nhwcx4_fp32nhwcx4_fp32kcrs",
  "TacticValue": "0x2cac8ad6921b6398",
  "StreamId": 0,
  "Metadata": "[ONNX Layer: /features.54/token_mixer/token_mixer.0/Conv]"
},{
  "Name": "/features.54/channel_mixer/m/m.0/Conv",
  "LayerType": "CaskGemmConvolution",
  "Inputs": [
  {
    "Name": "/features.54/token_mixer/token_mixer.0/Conv_output_0",
    "Location": "Device",
    "Dimensions": [1,640,7,7],
    "Format/Datatype": "Channel major FP32 format where channel % 4 == 0"
  }],
  "Outputs": [
  {
    "Name": "/features.54/channel_mixer/m/m.0/Conv_output_0",
    "Location": "Device",
    "Dimensions": [1,1280,7,7],
    "Format/Datatype": "Channel major FP32 format where channel % 4 == 0"
  }],
  "ParameterType": "Convolution",
  "Kernel": [1,1],
  "PaddingMode": "kEXPLICIT_ROUND_DOWN",
  "PrePadding": [0,0],
  "PostPadding": [0,0],
  "Stride": [1,1],
  "Dilation": [1,1],
  "OutMaps": 1280,
  "Groups": 1,
  "Weights": {"Type": "Float", "Count": 819200},
  "Bias": {"Type": "Float", "Count": 1280},
  "HasSparseWeights": 0,
  "HasDynamicFilter": 0,
  "HasDynamicBias": 0,
  "HasResidual": 0,
  "ConvXAsActInputIdx": -1,
  "BiasAsActInputIdx": -1,
  "ResAsActInputIdx": -1,
  "Activation": "NONE",
  "TacticName": "sm80_xmma_gemm_f32f32_tf32f32_f32_nn_n_tilesize64x32x64_stage4_warpsize2x1x2_tensor16x8x8",
  "TacticValue": "0x0000000000020332",
  "StreamId": 0,
  "Metadata": "[ONNX Layer: /features.54/channel_mixer/m/m.0/Conv]"
},{
  "Name": "Reformatting CopyNode for Input Tensor 0 to PWN(PWN(PWN(PWN(PWN(/features.54/channel_mixer/m/m.1/Constant_output_0 + (Unnamed Layer* 958) [Shuffle], /features.54/channel_mixer/m/m.1/Div), PWN(/features.54/channel_mixer/m/m.1/Erf)), /features.54/channel_mixer/m/m.1/Constant_1_output_0 + (Unnamed Layer* 962) [Shuffle] + /features.54/channel_mixer/m/m.1/Add), /features.54/channel_mixer/m/m.1/Mul), /features.54/channel_mixer/m/m.1/Constant_2_output_0 + (Unnamed Layer* 966) [Shuffle] + /features.54/channel_mixer/m/m.1/Mul_1)",
  "LayerType": "NoOp",
  "Inputs": [
  {
    "Name": "/features.54/channel_mixer/m/m.0/Conv_output_0",
    "Location": "Device",
    "Dimensions": [1,1280,7,7],
    "Format/Datatype": "Channel major FP32 format where channel % 4 == 0"
  }],
  "Outputs": [
  {
    "Name": "Reformatted Input Tensor 0 to PWN(PWN(PWN(PWN(PWN(/features.54/channel_mixer/m/m.1/Constant_output_0 + (Unnamed Layer* 958) [Shuffle], /features.54/channel_mixer/m/m.1/Div), PWN(/features.54/channel_mixer/m/m.1/Erf)), /features.54/channel_mixer/m/m.1/Constant_1_output_0 + (Unnamed Layer* 962) [Shuffle] + /features.54/channel_mixer/m/m.1/Add), /features.54/channel_mixer/m/m.1/Mul), /features.54/channel_mixer/m/m.1/Constant_2_output_0 + (Unnamed Layer* 966) [Shuffle] + /features.54/channel_mixer/m/m.1/Mul_1)",
    "Location": "Device",
    "Dimensions": [1,1280,7,7],
    "Format/Datatype": "Channel major FP32 format"
  }],
  "TacticValue": "0x0000000000000000",
  "StreamId": 0,
  "Metadata": ""
},{
  "Name": "PWN(PWN(PWN(PWN(PWN(/features.54/channel_mixer/m/m.1/Constant_output_0 + (Unnamed Layer* 958) [Shuffle], /features.54/channel_mixer/m/m.1/Div), PWN(/features.54/channel_mixer/m/m.1/Erf)), /features.54/channel_mixer/m/m.1/Constant_1_output_0 + (Unnamed Layer* 962) [Shuffle] + /features.54/channel_mixer/m/m.1/Add), /features.54/channel_mixer/m/m.1/Mul), /features.54/channel_mixer/m/m.1/Constant_2_output_0 + (Unnamed Layer* 966) [Shuffle] + /features.54/channel_mixer/m/m.1/Mul_1)",
  "LayerType": "PointWiseV2",
  "Inputs": [
  {
    "Name": "Reformatted Input Tensor 0 to PWN(PWN(PWN(PWN(PWN(/features.54/channel_mixer/m/m.1/Constant_output_0 + (Unnamed Layer* 958) [Shuffle], /features.54/channel_mixer/m/m.1/Div), PWN(/features.54/channel_mixer/m/m.1/Erf)), /features.54/channel_mixer/m/m.1/Constant_1_output_0 + (Unnamed Layer* 962) [Shuffle] + /features.54/channel_mixer/m/m.1/Add), /features.54/channel_mixer/m/m.1/Mul), /features.54/channel_mixer/m/m.1/Constant_2_output_0 + (Unnamed Layer* 966) [Shuffle] + /features.54/channel_mixer/m/m.1/Mul_1)",
    "Location": "Device",
    "Dimensions": [1,1280,7,7],
    "Format/Datatype": "Channel major FP32 format"
  }],
  "Outputs": [
  {
    "Name": "/features.54/channel_mixer/m/m.1/Mul_1_output_0",
    "Location": "Device",
    "Dimensions": [1,1280,7,7],
    "Format/Datatype": "Channel major FP32 format"
  }],
  "ParameterType": "PointWise",
  "ParameterSubType": "PointWiseExpression",
  "NbInputArgs": 1,
  "InputArgs": ["arg0"],
  "NbOutputVars": 1,
  "OutputVars": ["var4"],
  "NbParams": 0,
  "Params": [],
  "NbLiterals": 5,
  "Literals": ["1.414214e+00f", "0.000000e+00f", "1.000000e+00f", "0.000000e+00f", "5.000000e-01f"],
  "NbOperations": 5,
  "Operations": ["auto const var0 = pwgen::iDiv(arg0, literal0);", "auto const var1 = pwgen::iErf(var0);", "auto const var2 = pwgen::iPlus(var1, literal2);", "auto const var3 = pwgen::iMul(arg0, var2);", "auto const var4 = pwgen::iMul(var3, literal4);"],
  "TacticValue": "0x000000000000001c",
  "StreamId": 0,
  "Metadata": "[ONNX Layer: /features.54/channel_mixer/m/m.1/Div]\u001e[ONNX Layer: /features.54/channel_mixer/m/m.1/Erf]\u001e[ONNX Layer: /features.54/channel_mixer/m/m.1/Add]\u001e[ONNX Layer: /features.54/channel_mixer/m/m.1/Mul]\u001e[ONNX Layer: /features.54/channel_mixer/m/m.1/Mul_1]"
},{
  "Name": "Reformatting CopyNode for Input Tensor 0 to /features.54/channel_mixer/m/m.2/Conv + /features.54/channel_mixer/Add",
  "LayerType": "NoOp",
  "Inputs": [
  {
    "Name": "/features.54/channel_mixer/m/m.1/Mul_1_output_0",
    "Location": "Device",
    "Dimensions": [1,1280,7,7],
    "Format/Datatype": "Channel major FP32 format"
  }],
  "Outputs": [
  {
    "Name": "Reformatted Input Tensor 0 to /features.54/channel_mixer/m/m.2/Conv + /features.54/channel_mixer/Add",
    "Location": "Device",
    "Dimensions": [1,1280,7,7],
    "Format/Datatype": "Channel major FP32 format where channel % 4 == 0"
  }],
  "TacticValue": "0x0000000000000000",
  "StreamId": 0,
  "Metadata": ""
},{
  "Name": "/features.54/channel_mixer/m/m.2/Conv + /features.54/channel_mixer/Add",
  "LayerType": "CaskGemmConvolution",
  "Inputs": [
  {
    "Name": "Reformatted Input Tensor 0 to /features.54/channel_mixer/m/m.2/Conv + /features.54/channel_mixer/Add",
    "Location": "Device",
    "Dimensions": [1,1280,7,7],
    "Format/Datatype": "Channel major FP32 format where channel % 4 == 0"
  },
  {
    "Name": "/features.54/token_mixer/token_mixer.0/Conv_output_0",
    "Location": "Device",
    "Dimensions": [1,640,7,7],
    "Format/Datatype": "Channel major FP32 format where channel % 4 == 0"
  }],
  "Outputs": [
  {
    "Name": "/features.54/channel_mixer/Add_output_0",
    "Location": "Device",
    "Dimensions": [1,640,7,7],
    "Format/Datatype": "Channel major FP32 format where channel % 4 == 0"
  }],
  "ParameterType": "Convolution",
  "Kernel": [1,1],
  "PaddingMode": "kEXPLICIT_ROUND_DOWN",
  "PrePadding": [0,0],
  "PostPadding": [0,0],
  "Stride": [1,1],
  "Dilation": [1,1],
  "OutMaps": 640,
  "Groups": 1,
  "Weights": {"Type": "Float", "Count": 819200},
  "Bias": {"Type": "Float", "Count": 640},
  "HasSparseWeights": 0,
  "HasDynamicFilter": 0,
  "HasDynamicBias": 0,
  "HasResidual": 1,
  "ConvXAsActInputIdx": -1,
  "BiasAsActInputIdx": -1,
  "ResAsActInputIdx": -1,
  "Activation": "NONE",
  "TacticName": "sm80_xmma_gemm_f32f32_tf32f32_f32_nn_n_tilesize32x32x64_stage3_warpsize2x1x2_tensor16x8x8",
  "TacticValue": "0x0000000000020308",
  "StreamId": 0,
  "Metadata": "[ONNX Layer: /features.54/channel_mixer/m/m.2/Conv]\u001e[ONNX Layer: /features.54/channel_mixer/Add]"
},{
  "Name": "/GlobalAveragePool",
  "LayerType": "CaskPooling",
  "Inputs": [
  {
    "Name": "/features.54/channel_mixer/Add_output_0",
    "Location": "Device",
    "Dimensions": [1,640,7,7],
    "Format/Datatype": "Channel major FP32 format where channel % 4 == 0"
  }],
  "Outputs": [
  {
    "Name": "/GlobalAveragePool_output_0",
    "Location": "Device",
    "Dimensions": [1,640,1,1],
    "Format/Datatype": "Channel major FP32 format where channel % 4 == 0"
  }],
  "ParameterType": "Pooling",
  "PoolingType": "AVERAGE",
  "WindowSize": [7,7],
  "PaddingMode": "kEXPLICIT_ROUND_DOWN",
  "PrePadding": [0,0],
  "PostPadding": [0,0],
  "Stride": [1,1],
  "BlendFactor": 0,
  "AverageCountExcludesPadding": 1,
  "TacticName": "sm50_xmma_pooling_fw_4d_FP32FP32NHWC_Average_FastDiv_CAlign4",
  "TacticValue": "0xfab3e2ee1c085a9a",
  "StreamId": 0,
  "Metadata": "[ONNX Layer: /GlobalAveragePool]"
},{
  "Name": "Reformatting CopyNode for Input Tensor 0 to /classifier/Gemm",
  "LayerType": "NoOp",
  "Inputs": [
  {
    "Name": "/GlobalAveragePool_output_0",
    "Location": "Device",
    "Dimensions": [1,640,1,1],
    "Format/Datatype": "Channel major FP32 format where channel % 4 == 0"
  }],
  "Outputs": [
  {
    "Name": "Reformatted Input Tensor 0 to /classifier/Gemm",
    "Location": "Device",
    "Dimensions": [1,640,1,1],
    "Format/Datatype": "Row major linear FP32"
  }],
  "TacticValue": "0x0000000000000000",
  "StreamId": 0,
  "Metadata": ""
},{
  "Name": "/classifier/Gemm",
  "LayerType": "CaskGemmConvolution",
  "Inputs": [
  {
    "Name": "Reformatted Input Tensor 0 to /classifier/Gemm",
    "Location": "Device",
    "Dimensions": [1,640,1,1],
    "Format/Datatype": "Row major linear FP32"
  }],
  "Outputs": [
  {
    "Name": "/classifier/Gemm_out_tensor",
    "Location": "Device",
    "Dimensions": [1,1000,1,1],
    "Format/Datatype": "Row major linear FP32"
  }],
  "ParameterType": "Convolution",
  "Kernel": [1,1],
  "PaddingMode": "kEXPLICIT_ROUND_DOWN",
  "PrePadding": [0,0],
  "PostPadding": [0,0],
  "Stride": [1,1],
  "Dilation": [1,1],
  "OutMaps": 1000,
  "Groups": 1,
  "Weights": {"Type": "Float", "Count": 640000},
  "Bias": {"Type": "Float", "Count": 1000},
  "HasSparseWeights": 0,
  "HasDynamicFilter": 0,
  "HasDynamicBias": 0,
  "HasResidual": 0,
  "ConvXAsActInputIdx": -1,
  "BiasAsActInputIdx": -1,
  "ResAsActInputIdx": -1,
  "Activation": "NONE",
  "TacticName": "sm50_xmma_cublas_gemvx_f32f32_f32_f32_nn_n_int32_unit_n_launch_param32x4x4_strided_unit_stride",
  "TacticValue": "0x00000000000205d5",
  "StreamId": 0,
  "Metadata": "[ONNX Layer: /classifier/Gemm]"
},{
  "Name": "reshape_after_/classifier/Gemm",
  "LayerType": "NoOp",
  "Inputs": [
  {
    "Name": "/classifier/Gemm_out_tensor",
    "Location": "Device",
    "Dimensions": [1,1000,1,1],
    "Format/Datatype": "Row major linear FP32"
  }],
  "Outputs": [
  {
    "Name": "output",
    "Location": "Device",
    "Dimensions": [1,1000],
    "Format/Datatype": "Row major linear FP32"
  }],
  "TacticValue": "0x0000000000000000",
  "StreamId": 0,
  "Metadata": "[ONNX Layer: /classifier/Gemm]"
}],
"Bindings": ["input"
,"output"
]}
